BoTorch/heat/data/lig_seed42_final.pt (torch, 468690 bytes, 41 tensors)

conv_encoder.conv1.0.weight f4 [4, 2, 3]
0	0x3e1e84c6	0.15480337
1	0x3e38e0ea	0.18054548
2	0xbe71ce4c	-0.23613852
3	0x3e8c70ae	0.27429718
4	0xbe4702ae	-0.19434616
5	0xbd4e65a3	-0.050389897
6	0xbe917bed	-0.2841486
7	0x3e18a93b	0.14908306
8	0x3e8f5cd5	0.28000513
9	0xbeb87a4a	-0.360308
10	0x3e8bfd14	0.2734152
11	0x3d159ef3	0.03652854
12	0x3e33c696	0.17556223
13	0xbda3aec7	-0.079923205
14	0x3d71c276	0.059023343
15	0xbe2c4949	-0.16824831
16	0x3e45776f	0.19283842
17	0xbdce906d	-0.10086141
18	0xbe432922	-0.1905866
19	0x3dd51e58	0.10406178
20	0xbe409bf6	-0.18809494
21	0xbd441a18	-0.047876447
22	0xbe29cb00	-0.16581345
23	0x3e8aa8ee	0.27082008

conv_encoder.conv1.0.bias f4 [4]
0	0xbf00860d	-0.50204545
1	0xbe30d5d4	-0.17269069
2	0xbe1b78b4	-0.15182763
3	0xbe7b5c16	-0.24546847

conv_encoder.conv2.0.weight f4 [8, 4, 3]
0	0x3cdf3320	0.027246058
1	0xbe91fb0a	-0.2851184
2	0x3e751ef5	0.2393759
3	0xbe7b1b0b	-0.24522035
4	0x3e4c8e7e	0.19976231
5	0x3cd21f92	0.02564982
6	0xbdbff7ac	-0.093734115
7	0x3e262728	0.16225874
8	0x3cb92e25	0.022605011
9	0x3e6ed630	0.23323894
10	0x3d0142d8	0.031557888
11	0xbdba7362	-0.09104039
12	0x3ccab022	0.02474219
13	0xbe06a209	-0.13147749
14	0x3d8a3a31	0.067493804
15	0x3e51e517	0.20497547
16	0x3de84a64	0.11342314
17	0xbe3814dc	-0.17976707
18	0x3de9c160	0.114138365
19	0xba8c6b02	-0.0010713043
20	0x3dbecb5e	0.09316133
21	0xbe342bf6	-0.17594895
22	0xbe924f64	-0.28576195
23	0xbde46b3e	-0.11153267
24	0xbe690143	-0.22754388
25	0x3e6a684d	0.2289135
26	0x3d5891fe	0.052873604
27	0x3d94283d	0.07234237
28	0x3d6653df	0.05623233
29	0xbd29d7ed	-0.04146569
30	0x3e5f2719	0.21792258
31	0xbe5be6fb	-0.21474831
32	0xbc6463df	-0.013939827
33	0xbe49c2db	-0.19703238
34	0x3db64cbc	0.08901355
35	0xbdcb99e2	-0.0994146
36	0x3d5a2edc	0.053267345
37	0xbdc30254	-0.095219284
38	0x3e510489	0.20411886
39	0xbe5340e5	-0.20630224
40	0xbe547658	-0.2074827
41	0xbe53e660	-0.2069335
42	0x3e65d219	0.22443427
43	0x3d79b9da	0.060968257
44	0x3e78663e	0.24257752
45	0xbe73f454	-0.23823673
46	0xbe9299d7	-0.28632995
47	0xbe6744f4	-0.22584897
48	0xbe40750c	-0.1879465
49	0x3d859137	0.06521838
50	0x3dd8f340	0.10593271
51	0x3e5958cb	0.21225278
52	0xbe776ea8	-0.24163306
53	0xbe8a7df2	-0.27049214
54	0x3db16cb8	0.086633146
55	0xbe4cb069	-0.1998917
56	0x3db97d14	0.0905706
57	0xbd8c4b32	-0.0685028
58	0x3e291944	0.16513544
59	0xbe65aca1	-0.22429134
60	0xbe0e9554	-0.13924152
61	0x3e0c53b3	0.13703804
62	0xbc3a3ba1	-0.011366756
63	0xbc737135	-0.014858534
64	0x3e9783b7	0.29592678
65	0x3e8ae330	0.27126455
66	0xbe07c85e	-0.13260028
67	0xbe3718a6	-0.17880496
68	0x3ea5610b	0.323006
69	0xbdc77e0a	-0.09740837
70	0xbdd197aa	-0.10234006
71	0xbe8f0319	-0.2793205
72	0xbdfa997b	-0.12236305
73	0x3d9dff45	0.077147044
74	0xbdceae16	-0.10091798
75	0xbe5c69e3	-0.21524768
76	0x3daf58d5	0.08561865
77	0xbe34d73f	-0.17660235
78	0xbe2c1503	-0.1680489
79	0xbdcb62ac	-0.099309295
80	0xbe5127ec	-0.20425385
81	0xbe3c38ce	-0.18381044
82	0x3e93be6e	0.28856224
83	0x3d5f5408	0.054523498
84	0x3e4709a1	0.19437267
85	0xbe56fefd	-0.20995708
86	0xbe12ec51	-0.1434796
87	0x3b37b3f2	0.002803084
88	0x3c4f7a7d	0.012663481
89	0xbe619136	-0.2202805
90	0xbde4b62b	-0.11167558
91	0xbe3f1aa7	-0.18662511
92	0xbd23cc28	-0.03998962
93	0xbddbfd6a	-0.10741694
94	0xbca3df60	-0.020003974
95	0xbe484f42	-0.19561484

conv_encoder.conv2.0.bias f4 [8]
0	0xbe630a0f	-0.22171806
1	0xbe4ca707	-0.19985591
2	0xbdb7aa8e	-0.089680776
3	0xbe749028	-0.23883116
4	0x3ecc95bf	0.39957997
5	0x3dca28f3	0.09871092
6	0x3e827b83	0.25484857
7	0x3db20931	0.08693159

conv_encoder.conv3.0.weight f4 [16, 8, 3]
0	0xbe31000a	-0.17285171
1	0x3e0bb567	0.13643418
2	0xbd660be8	-0.0561637
3	0xbd7fc41f	-0.062442895
4	0xbe16c76b	-0.1472451
5	0xbe40571e	-0.18783233
6	0x3e031bbd	0.1280355
7	0x3c94858b	0.018130084
8	0x3e12db4a	0.14341465
9	0xbe2a0b02	-0.16605762
10	0x3e1c8e9f	0.1528878
11	0xbe19acb6	-0.1500729
12	0x3db701f7	0.08935922
13	0x3e110d0f	0.14165138
14	0x3e77b7ce	0.2419121
15	0x3e6271be	0.22113702
16	0x3e0f788f	0.14010833
17	0xbe3bbf78	-0.18334758
18	0xbd6b97dd	-0.057517875
19	0xbe8d505c	-0.27600372
20	0xbe159702	-0.14608386
21	0xbe5405ea	-0.20705381
22	0x3e2a2cd0	0.16618657
23	0xbe4c35fe	-0.19942471
24	0x3ddf6ce4	0.10909441
25	0x3d92eb04	0.07173732
26	0x3d87d8bc	0.06633136
27	0xbde203df	-0.110358946
28	0x3e3dfdec	0.18553895
29	0x3d37bb50	0.04485637
30	0x3cd71c28	0.026258543
31	0xbe3833e0	-0.17988539
32	0x3daf7db4	0.08568898
33	0xbcfadcb8	-0.030622825
34	0xbdbf8464	-0.093514234
35	0x3e338a2a	0.17533174
36	0x3d3a67e4	0.045509234
37	0xbde74b8e	-0.11293708
38	0xbdd396e9	-0.10331518
39	0xbc1fb680	-0.009748101
40	0x3de96bbc	0.11397502
41	0xbd55a660	-0.05216062
42	0xbdee86d6	-0.11646812
43	0xbd8f282e	-0.069900855
44	0xbe1c27ea	-0.15249601
45	0x3d9516c0	0.0727973
46	0x3e21cad4	0.15800029
47	0xbe44c866	-0.19217071
48	0x3d422ee0	0.047407985
49	0x3ddf0495	0.10889546
50	0x3d179bb0	0.03701371
51	0xbd50fb2f	-0.051020797
52	0x3dff031e	0.124517664
53	0x3e25c276	0.16187462
54	0x3d9c34f3	0.07627287
55	0xbca92d4c	-0.020651482
56	0xbd29db6e	-0.04146903
57	0x3c887a32	0.01665983
58	0xbd17c7ba	-0.03705571
59	0xbd750de8	-0.059827715
60	0x3e75683a	0.2396554
61	0x3e969fa5	0.29418674
62	0x3dbb2df3	0.091396235
63	0xbd26e601	-0.040746693
64	0xbdc34cd6	-0.0953614
65	0xbdb0e7e9	-0.08637983
66	0xbd8de47f	-0.06928348
67	0xbdc73763	-0.09727361
68	0xbe8ce29b	-0.27516636
69	0xbe1ade84	-0.15123945
70	0x3de47e30	0.11156881
71	0x3d052bd4	0.0325125
72	0xbc265740	-0.010152638
73	0xbdf5f745	-0.120100535
74	0xbdffc349	-0.124884196
75	0xbe12544d	-0.1428997
76	0xbcc28c13	-0.023748433
77	0x3db777c0	0.089583874
78	0x3e5cd5a8	0.21565878
79	0x3e192a16	0.14957461
80	0xbdf25c18	-0.11833972
81	0xbe08d5c3	-0.13362794
82	0xbd2f4bc5	-0.04279687
83	0x3e435127	0.19073926
84	0x3e3526df	0.1769061
85	0x3d8e0409	0.069343634
86	0x3e6d0801	0.23147584
87	0xbd560f7f	-0.052260872
88	0xbe27838e	-0.16358778
89	0x3dd3a7a5	0.1033471
90	0xbe279c3d	-0.16368194
91	0xbe00e117	-0.12585865
92	0xbe806e7d	-0.25084296
93	0x3e0de552	0.1385701
94	0x3e0c0545	0.13673885
95	0x3d079b89	0.033107314
96	0xbe11bf17	-0.14233051
97	0xbe4e4b14	-0.20145828
98	0xbe29c3a2	-0.16578534
99	0x3e11dbdd	0.14244027
100	0x3db4afd8	0.08822602
101	0x3e25e256	0.16199622
102	0x3dc6fb70	0.09715927
103	0x3d2b91b7	0.04188701
104	0xbc40e858	-0.011774145
105	0xbe28f898	-0.16501081
106	0xbe3d183a	-0.18466273
107	0xbe4d84d6	-0.20070204
108	0x3d971cdb	0.073785506
109	0xbde14451	-0.109993584
110	0xbd504e0e	-0.05085569
111	0xbe024dc2	-0.12724975
112	0xbd406534	-0.046971515
113	0xbe1d2111	-0.15344645
114	0xbe089439	-0.13337792
115	0x3d8aaba4	0.06771019
116	0xbd787bd4	-0.060664967
117	0x3e0109fc	0.12601465
118	0xbd861ce8	-0.06548482
119	0xbe195520	-0.14973879
120	0xbd1384f0	-0.03601545
121	0xbdfa2156	-0.122133896
122	0xbd7fcba4	-0.062450066
123	0xbe3ea86f	-0.1861894
124	0x3e2ba153	0.16760759
125	0xbdb4ec60	-0.088341475
126	0x3da199e0	0.078906775
127	0x3ddb4e20	0.107082605
128	0x3e22a975	0.15884955
129	0xbe0ac56c	-0.13551873
130	0x3e39bed3	0.181392
131	0xbd7c6b34	-0.061625674
132	0x3e17d7f0	0.14828467
133	0x3e8c52be	0.27406877
134	0x3cd26f92	0.025687966
135	0xbd0248c2	-0.03180767
136	0xbe2d2026	-0.16906795
137	0xbe9a8d67	-0.30186006
138	0x3d5959a3	0.053064
139	0xbe85de30	-0.26146078
140	0x3d1c6588	0.038182765
141	0x3e0bcf5d	0.13653322
142	0x3e1baf2e	0.15203544
143	0xbe1e8f2e	-0.15484306
144	0xbe2bbdff	-0.16771697
145	0x3d3bfa98	0.04589328
146	0x3de6f0b0	0.11276376
147	0xbe4020ff	-0.18762587
148	0xbd7d70bd	-0.061875094
149	0xbe0d3730	-0.13790584
150	0xbc924168	-0.017853454
151	0xbdcdc49c	-0.10047266
152	0xbdaae23e	-0.083439335
153	0xbd84b666	-0.06480102
154	0xbe46a2b2	-0.19398001
155	0x3e1b9708	0.15194333
156	0x3e1f50a4	0.15558106
157	0xbd42d1cc	-0.04756336
158	0xbd1ee0e2	-0.038788684
159	0xbdaa9cee	-0.08330713
160	0xbe4cad09	-0.19987883
161	0xbe5b5302	-0.21418384
162	0x3d771417	0.060321894
163	0xbe02adbc	-0.12761587
164	0xbdecebdd	-0.11568425
165	0xbd00e586	-0.03146889
166	0xbd8b36ce	-0.067975625
167	0xbd4ed57f	-0.050496574
168	0x3bd6eac0	0.006558746
169	0xbcd8652c	-0.02641543
170	0xbd8ff044	-0.07028249
171	0xbde7891e	-0.1130545
172	0xbe60eb29	-0.21964706
173	0x3e0ffc47	0.1406108
174	0xbdf5ab13	-0.119955204
175	0x3c977423	0.018487995
176	0xbdd3b1b6	-0.1033663
177	0x3cb00ab0	0.021489471
178	0x3e1eb2f9	0.1549796
179	0x3dacc974	0.08436862
180	0xbe634945	-0.22195919
181	0x3d9061ae	0.07049881
182	0x3e1b69aa	0.15177026
183	0xbd9a3f97	-0.0753166
184	0x3c9e9187	0.019356502
185	0x3d999dfd	0.07500837
186	0xbe30dc52	-0.17271546
187	0xbe10efa2	-0.14153913
188	0xbea59c5a	-0.3234585
189	0xbe563b4f	-0.20921062
190	0x3d4da7e1	0.05020893
191	0xbd4519e9	-0.048120413
192	0xbe04447e	-0.12916753
193	0xbe239efb	-0.15978615
194	0xbe0ed6bc	-0.13949102
195	0xbe225073	-0.15851001
196	0xbe3d8d77	-0.18510996
197	0xbd89085c	-0.066910475
198	0x3e3528fb	0.17691414
199	0x3cf8b173	0.030358052
200	0xbe1d4739	-0.153592
201	0xbe0ad75d	-0.13558717
202	0x3dba873b	0.091078244
203	0xbe1ee9a0	-0.15518808
204	0x3c187d30	0.009307191
205	0x3dc2cdd6	0.09511916
206	0xbdb9f20f	-0.09079372
207	0xbd27ce61	-0.040968303
208	0xbddbd9de	-0.10734914
209	0xbdeb2374	-0.114813715
210	0xbe5cbe41	-0.21556951
211	0xbec2733b	-0.3797854
212	0xbe7fec1f	-0.24992417
213	0xbe250e8d	-0.16118832
214	0x3de47aa0	0.11156201
215	0xbe2ee61f	-0.17079972
216	0xbe0c5d69	-0.13707508
217	0x3d4aa9f8	0.0494785
218	0x3d666f90	0.056258738
219	0x3de50d38	0.11184162
220	0x3e1ee1fc	0.15515894
221	0x3de8cc94	0.11367145
222	0xbe4f3f24	-0.2023893
223	0x3c944dc0	0.01810348
224	0x3dfd3b98	0.12364882
225	0xbc9a8d70	-0.01886627
226	0xbdf65891	-0.120286115
227	0x3e474524	0.19459969
228	0xbd9c5c66	-0.07634811
229	0xbdee0329	-0.116216965
230	0xbe3c7224	-0.18402916
231	0x3c156330	0.009117886
232	0x3db94008	0.09045416
233	0x3d391470	0.045185506
234	0x3d25564c	0.040365502
235	0xbe1e8541	-0.1548052
236	0xbe43343c	-0.19062895
237	0x3b6b9180	0.003594488
238	0x3e3e982c	0.18612736
239	0x3df12e08	0.11776358
240	0xbdf3669f	-0.11884808
241	0x3b952b7d	0.0045523033
242	0xbe1a16a3	-0.15047698
243	0xbdef15ff	-0.11674117
244	0x3caef4d5	0.02135698
245	0x3dc30b0b	0.09523591
246	0x3e26eb8a	0.16300789
247	0xbe221d51	-0.15831496
248	0x3dd8cf39	0.105863996
249	0xbe11ff94	-0.14257652
250	0x3d99236c	0.07477459
251	0x3e2eef42	0.17083457
252	0xbd75cc10	-0.060009062
253	0x3df67b85	0.12035278
254	0xbe633463	-0.22187953
255	0xbdb3f90a	-0.08787735

conv_encoder.conv3.0.bias f4 [16]
0	0x3eb25247	0.34828398
1	0xbe45eead	-0.19329329
2	0x3eaf580d	0.34246865
3	0x3e51494f	0.20438121
4	0xbd094694	-0.033514574
5	0x3e687742	0.22701743
6	0xbd0cf0c8	-0.034409314
7	0x3e2d6ea0	0.16936731
8	0x3e6b66cc	0.22988433
9	0xbe3579da	-0.17722264
10	0x3cab801b	0.020935109
11	0x3d8c5c69	0.06853563
12	0x3e31d7f6	0.17367539
13	0x3dc3e299	0.095647044
14	0x3dcdd878	0.10051054
15	0xbde8f081	-0.113739975

conv_encoder.conv4.0.weight f4 [32, 16, 3]
0	0xbde899b0	-0.113574386
1	0x3d8d99a0	0.06914067
2	0x3af9c9ad	0.0019057296
3	0xbbb1af80	-0.0054225326
4	0xbe0b0315	-0.13575394
5	0x3bcf4a40	0.00632599
6	0xbdce0be4	-0.10060862
7	0x3db33e52	0.08752121
8	0xbe112c94	-0.14177161
9	0x3d3d307c	0.046188816
10	0xbd88d479	-0.06681151
11	0x3ce7d9af	0.028302042
12	0x3e0b15e0	0.13582563
13	0x3b8114aa	0.003939231
14	0x3dab33ec	0.08359513
15	0x3db242fc	0.087041825
16	0x3d64ebff	0.055889126
17	0xbde77040	-0.11300707
18	0xbd43e3c6	-0.047824644
19	0x3d5d4338	0.054019183
20	0xbd60e81c	-0.054908857
21	0x3d01b415	0.03166588
22	0xbae532ef	-0.0017486493
23	0xbd8d98d1	-0.06913913
24	0x3d725cf5	0.059170682
25	0xbc0f9ffa	-0.008766169
26	0xbbf085b2	-0.0073401565
27	0x3e12d6c2	0.14339736
28	0x3dc9d172	0.09854402
29	0x3e0c1cfa	0.13682929
30	0xbceb778b	-0.028743526
31	0xbe0a9b71	-0.13535859
32	0xbe2db102	-0.16962054
33	0xbdf0a252	-0.1174971
34	0xbe0a8144	-0.13525873
35	0xbd85fcde	-0.06542371
36	0xbdd1a349	-0.10236222
37	0xbdf5aea3	-0.119962
38	0xbddee44f	-0.1088339
39	0xbe2b1da0	-0.1671052
40	0xbd4931e7	-0.049119856
41	0x3cd3e602	0.025866512
42	0x3df92a64	0.121662885
43	0x3c1fc985	0.009752636
44	0xbdaa0ee3	-0.08303621
45	0x3d9dd6a0	0.07706952
46	0xbd64058d	-0.055669356
47	0xbd8bc558	-0.0682475
48	0x3db62144	0.08893064
49	0xbe00c7a3	-0.12576155
50	0x3c909450	0.017648846
51	0x3e0290ba	0.12750521
52	0x3ccac498	0.024751946
53	0x3d20c664	0.0392517
54	0xbdac2822	-0.08406092
55	0xbb028180	-0.0019913614
56	0x3c020760	0.007936329
57	0x3d111a34	0.03542538
58	0x3d65b604	0.056081787
59	0x3e006dd2	0.12541893
60	0xbde1a245	-0.110172786
61	0x3b8dc5e0	0.004326567
62	0xbd93b1b4	-0.072116286
63	0xbde9d754	-0.11418024
64	0xbc3d5eb0	-0.01155822
65	0xbe0219b9	-0.12705125
66	0x3dce4d24	0.10073307
67	0x3c88f0e0	0.01671642
68	0xbd9f515b	-0.07779189
69	0x3d9a79e2	0.075427786
70	0xbe0be235	-0.1366051
71	0xbd64ada4	-0.05582966
72	0xbce65b34	-0.02811966
73	0xbdfb3063	-0.122650884
74	0xbdbbf880	-0.09178257
75	0xbcc0fdec	-0.02355858
76	0x3de04b18	0.10951823
77	0x3e0eb9ae	0.13938019
78	0x3dbc14d0	0.09183657
79	0xbdb08308	-0.08618742
80	0xbdc163d4	-0.09442869
81	0x3e00fc4a	0.1259624
82	0x3d511ec0	0.051054716
83	0x3b7b4fc0	0.0038347095
84	0x3ca004b8	0.0195335
85	0xbded9350	-0.11600363
86	0xbd456532	-0.04819221
87	0x3e0e46cc	0.13894194
88	0xbd11cf84	-0.035598293
89	0xbbed4240	-0.0072405636
90	0xbdf572da	-0.11984797
91	0xbda55cd4	-0.08074346
92	0xbb4127c0	-0.0029473156
93	0xbdb79de6	-0.089656636
94	0xbc92a170	-0.017899245
95	0x3d7098d4	0.0587395
96	0xbe109384	-0.14118773
97	0x3d2f9874	0.04287
98	0xbdc37490	-0.09543717
99	0xbd9044ff	-0.0704441
100	0x3d62f850	0.05541259
101	0x3deb0a4c	0.11476573
102	0xbd2194f6	-0.0394487
103	0xbd72bb2e	-0.05926054
104	0xbe05a5c7	-0.1305152
105	0xbd986e1d	-0.074428774
106	0xbe016bac	-0.1263873
107	0xbd074f4e	-0.033034615
108	0x3cf14720	0.02945286
109	0xbe0a78c7	-0.13522635
110	0x3e010c32	0.12602308
111	0x3db97576	0.09055607
112	0xbe10b099	-0.14129867
113	0xbd8d309e	-0.068940386
114	0x3d40d33c	0.04707645
115	0xbcf2f02c	-0.029655538
116	0xbc80daf0	-0.015729398
117	0xbd857834	-0.065170676
118	0x3ded6f34	0.11593476
119	0xbda53de3	-0.080684446
120	0x3df52310	0.11969578
121	0x3c189580	0.009312987
122	0x3cedb0d8	0.02901499
123	0x3de69c0c	0.11260232
124	0xbcc2d230	-0.023781866
125	0xbda84cbe	-0.082177624
126	0xbcbf3c98	-0.023344323
127	0x3defc004	0.11706546
128	0xbddb557c	-0.10709664
129	0x3d063140	0.032761812
130	0xbe11421a	-0.14185372
131	0x3d9afc46	0.075676486
132	0x3d5a6e88	0.053328067
133	0x3bc88020	0.0061187893
134	0x3d7dbde8	0.061948687
135	0x392a3c00	0.00016234815
136	0x3da392ac	0.0798696
137	0xbdea0173	-0.11426058
138	0xbcada3ec	-0.021196328
139	0x3d83224a	0.064030245
140	0x3e132ef2	0.14373377
141	0x3d9693ea	0.07352431
142	0xbdd6f486	-0.10495858
143	0x3de358fc	0.11100957
144	0xbd88921d	-0.06668494
145	0xbdc5dae3	-0.0966089
146	0xbdc34b3a	-0.09535833
147	0xbcba20f8	-0.022720799
148	0x3dd11692	0.10209383
149	0x3ca4e1a8	0.020127133
150	0xbe086525	-0.13319834
151	0x3c07e010	0.008293167
152	0xbcfc354b	-0.03078713
153	0x3d9f102b	0.07766756
154	0xbe7f9cfe	-0.24962232
155	0xbdb5fce6	-0.08886127
156	0xbe0eb6a0	-0.13936853
157	0xbd081121	-0.03321946
158	0x3d3a6064	0.04550208
159	0x3e22b5c8	0.15889657
160	0xbd855fae	-0.0651239
161	0x3e22de7c	0.15905184
162	0x3d335548	0.043782502
163	0x3dca8d6f	0.098902576
164	0x3e065c3d	0.13121124
165	0x3d292f15	0.041304667
166	0xbe266edb	-0.16253226
167	0x3daa47bd	0.08314464
168	0x3db64d4a	0.089014605
169	0xbdae74f0	-0.08518398
170	0xbdc283a4	-0.09497765
171	0xbdf7efa9	-0.121062584
172	0x3d147958	0.036248535
173	0xbdef99df	-0.116992705
174	0x3c264ea8	0.010150589
175	0x3d135979	0.035974
176	0xbe196ed6	-0.14983687
177	0xbc9a40fe	-0.018829819
178	0xbdaa8b53	-0.08327355
179	0x3bfc8b11	0.0077070077
180	0x3ac03c82	0.001466647
181	0xbe45be7c	-0.19310945
182	0x3da4ba93	0.08043399
183	0x3dc129c2	0.09431793
184	0xbd485918	-0.04891309
185	0xbe16cc80	-0.14726448
186	0xbdac7186	-0.084200904
187	0xbe09e852	-0.1346753
188	0xbdbfee29	-0.09371597
189	0x3da6b292	0.08139528
190	0x3d174871	0.03693432
191	0x3dea2bb8	0.1143412
192	0xbd5d6bac	-0.054057762
193	0x3d46f6ec	0.048575327
194	0x3d525934	0.051354602
195	0xbdf61ddb	-0.12017413
196	0xbe0f5edc	-0.1400103
197	0xbd9962a6	-0.07489519
198	0x3dca5ac6	0.09880595
199	0xbe0b2639	-0.135888
200	0xbe00a6cd	-0.1256363
201	0x3da598e0	0.08085799
202	0x3d9f7c90	0.0778743
203	0x3df31a20	0.11870217
204	0xbddf2993	-0.108966015
205	0xbdd85a1d	-0.10564063
206	0x3d97a3fc	0.074043244
207	0x3e008866	0.12552032
208	0x3db0def6	0.086362764
209	0x3cb93a40	0.022610784
210	0x3d42d8c4	0.047570005
211	0x3e0c4852	0.13699463
212	0xbdbeb97c	-0.09312722
213	0xbd863518	-0.065530956
214	0x3dcec3c8	0.10095936
215	0xbdca4376	-0.098761484
216	0xbda2ffd8	-0.079589546
217	0x3dd7c9ac	0.10536513
218	0x3d3a89ec	0.04554169
219	0x3d3f004c	0.046631142
220	0xbd7a93c8	-0.06117609
221	0xbb028b00	-0.0019919276
222	0x3e0745de	0.13210246
223	0xbdb16d54	-0.08663431
224	0x3a94be00	0.0011348128
225	0x3d8c96bc	0.06864688
226	0xbdcc1255	-0.09964434
227	0x3e0f8aa4	0.14017731
228	0xbd93afc1	-0.07211257
229	0xbd0df854	-0.034660652
230	0xbd1ff684	-0.039053455
231	0xbdc0a1ee	-0.09405886
232	0xbe110855	-0.14163335
233	0x3da6ad2a	0.08138497
234	0x3d1d117c	0.038346753
235	0xbe0a6e60	-0.13518667
236	0xbdbe421c	-0.09289953
237	0x3e12151a	0.14265862
238	0x3d61fadc	0.05517088
239	0x3d6d37f0	0.057914674
240	0xbe51f89a	-0.2050499
241	0xbe31fdc0	-0.17381954
242	0xbc34a8e6	-0.011026597
243	0xbcd83d5c	-0.026396446
244	0xbdca8fcc	-0.09890708
245	0x3c42d380	0.011891246
246	0x3b1f6972	0.0024324325
247	0xbdb0278d	-0.08601294
248	0x3c843c2b	0.016141972
249	0xbdcf1a0b	-0.10112389
250	0xbd330d66	-0.04371395
251	0xbcaf9258	-0.021432087
252	0xbd9bb4b0	-0.07602823
253	0xbe088c92	-0.13334873
254	0x3d9aba9c	0.07555124
255	0x3cd7005c	0.026245289

conv_encoder.conv4.0.bias f4 [32]
0	0x3c19b50d	0.009381545
1	0x3c8ce450	0.017198712
2	0xbd93d873	-0.07219019
3	0x3db28105	0.08716015
4	0xbe117091	-0.14203097
5	0x3e068375	0.13136084
6	0x3df474a3	0.11936309
7	0x3e13e85b	0.14444105
8	0x3d42b41f	0.047535058
9	0x3c8152d5	0.015786568
10	0x3da51a22	0.08061625
11	0x3e8a7044	0.27038777
12	0xbde6b4c4	-0.11264947
13	0x3ea48f23	0.32140455
14	0xbd311ec1	-0.04324222
15	0xbd4d292a	-0.050088085
16	0x3c5d587c	0.013509866
17	0x3d9f834b	0.07788714
18	0xbda0b1c9	-0.0784641
19	0xbdc7375e	-0.09727357
20	0x3e8e2eed	0.27770177
21	0xbd8ad5dd	-0.067790724
22	0x3b45e0f1	0.003019389
23	0xbcae334c	-0.021264695
24	0x3cbaf94b	0.02282395
25	0x3e7727a9	0.24136223
26	0xbd95cfbc	-0.07315013
27	0xbdc39724	-0.09550312
28	0x3e2041d8	0.15650117
29	0x3c017ae0	0.007902831
30	0xbd04ca84	-0.032419696
31	0xbe01d3c6	-0.12678441

conv_encoder.output.0.weight f4 [64, 32]
0	0x3df42812	0.11921705
1	0xbbdb5f20	-0.0066946894
2	0xbd055dac	-0.032560036
3	0xbdb11ded	-0.08648286
4	0xbd0ee35c	-0.034884796
5	0x3d7f55dd	0.062337745
6	0x3d2b867e	0.04187631
7	0x3e4a88e6	0.19778785
8	0x3d1a66ba	0.037695624
9	0xbda74265	-0.081669606
10	0x3da42b84	0.080161124
11	0x3d74d254	0.059770897
12	0xbd108550	-0.035283387
13	0x3e06c3d5	0.13160641
14	0x3e0a988f	0.13534759
15	0x3d782d24	0.060589924
16	0x3e0df5ae	0.1386325
17	0x3de168ad	0.110062934
18	0x3d4cc478	0.049992055
19	0x3d7bc0e0	0.061463237
20	0x3dd19319	0.10233135
21	0x3c963660	0.018336475
22	0x3e02a454	0.12757999
23	0x3e271b35	0.16318972
24	0x3d75c97d	0.060006607
25	0x3d937a4f	0.07201063
26	0x3e224d05	0.15849693
27	0xbdf6794f	-0.120348565
28	0x3e0ecb27	0.13944684
29	0x3dbfd13e	0.09366082
30	0x3dc5f7a2	0.09666373
31	0xbc5e8a30	-0.013582751
32	0xbdd76fd8	-0.105193794
33	0x3e0120cd	0.12610169
34	0xbd9e4dae	-0.0772966
35	0x3d6c6bc4	0.05771996
36	0x3dcd1c7a	0.10015197
37	0xbdba8415	-0.09107224
38	0xbcd646ea	-0.026156861
39	0xbd7a4ff3	-0.0611114
40	0x3e01366a	0.12618414
41	0xbdd132c5	-0.10214762
42	0x3db44f2c	0.08804163
43	0x3da4b7b6	0.080428526
44	0x3dc7bdfa	0.09753032
45	0x3e404aff	0.18778609
46	0xbd3d9715	-0.04628666
47	0xbe1371fd	-0.14398952
48	0x3e11236c	0.14173669
49	0x3d1b3014	0.037887648
50	0x3b65e8c0	0.0035081357
51	0xbe2c6fe4	-0.16839558
52	0x3ba2d15f	0.0049688066
53	0xbdafb8cf	-0.08580171
54	0x3e6a4939	0.22879495
55	0x3e00e417	0.1258701
56	0x3dea2d87	0.11434465
57	0x3e12a39f	0.14320229
58	0xbde06b17	-0.10957926
59	0xbd7e094e	-0.062020592
60	0xbd60b237	-0.05485746
61	0xbd912287	-0.07086664
62	0x3e1e2b7f	0.1544628
63	0x3d760478	0.060062855
64	0x3e287dac	0.1645419
65	0xbc077c80	-0.008269429
66	0xbe215d95	-0.15758355
67	0x3c70fda6	0.014708912
68	0x3dfe705a	0.12423773
69	0x3e3abb96	0.18235621
70	0x3d249510	0.04018122
71	0xbd204bbf	-0.039134737
72	0xbe07f80d	-0.13278218
73	0xbdb74cec	-0.089502186
74	0x3de8cfbb	0.113677464
75	0xbd5e4bcb	-0.0542715
76	0x3dad2d56	0.08455913
77	0x3d9cf248	0.07663399
78	0x3ce5a3b7	0.028032167
79	0x3dbd1100	0.09231758
80	0xbd2902d6	-0.04126247
81	0x3d1d01a7	0.038331654
82	0xbd89e7be	-0.067336544
83	0xbe2bb5b5	-0.16768534
84	0x3cc188d2	0.023624811
85	0x3d513c70	0.05108303
86	0xbd9d52e1	-0.076818235
87	0x3dde176a	0.1084431
88	0xbe0fa308	-0.14027035
89	0xbe04e2c1	-0.12977125
90	0xbddf9ce1	-0.10918594
91	0xbd3804db	-0.044926506
92	0xbc9e6539	-0.019335376
93	0xbd0bed24	-0.0341617
94	0x3d831b28	0.06401664
95	0xbe1eddfe	-0.15514371
96	0x3caf6a92	0.021413121
97	0x3b48a100	0.0030613542
98	0x3d3f4030	0.046692073
99	0x3e0cf147	0.13763915
100	0x3dded0ee	0.10879694
101	0xbdcaee03	-0.099086784
102	0xbe5192ef	-0.20466207
103	0xbdd03107	-0.10165601
104	0xbdf86da6	-0.12130289
105	0x3d6e6fb8	0.058212012
106	0xbcea4738	-0.028598413
107	0x3d5be855	0.053688366
108	0x3d8e3606	0.06943898
109	0xbdd466a5	-0.103711404
110	0xbcaf92c8	-0.021432295
111	0x3cd0e706	0.025500786
112	0xbd198281	-0.037477974
113	0x3e150f41	0.145566
114	0xbe0d8a00	-0.13822174
115	0x3db075b6	0.086162016
116	0xbe3b6639	-0.18300714
117	0xbe1e9672	-0.15487078
118	0xbd199109	-0.037491832
119	0x3db06c5a	0.086144164
120	0x3e0c87d1	0.13723685
121	0xbce69a34	-0.028149702
122	0xbc7a5340	-0.015278637
123	0x3c887aae	0.01666006
124	0xbdcd6511	-0.100290425
125	0xbc81f420	-0.015863478
126	0x3b922c6b	0.0044608614
127	0x3e1a0a6b	0.15043037
128	0x3d31ccb0	0.043408096
129	0xbe10db23	-0.14146094
130	0x3a3fb300	0.0007312745
131	0xbe49f637	-0.1972283
132	0xbce5e1a0	-0.028061688
133	0xbe31451c	-0.1731152
134	0xbd995844	-0.074875385
135	0xbe6677bc	-0.22506613
136	0x3e414d03	0.18877034
137	0x3d51e1d5	0.05124076
138	0xbe86fd7e	-0.26365274
139	0xbe9f8312	-0.31154686
140	0x3be203c0	0.0068974197
141	0xbe2f752b	-0.1713454
142	0x3d57eef7	0.05271813
143	0xbe0bcd33	-0.13652496
144	0x3db4072c	0.087904304
145	0xbe41e2de	-0.18934199
146	0xbdbf12bb	-0.093297444
147	0xbdbe530a	-0.09293182
148	0xbcee9fc2	-0.029128913
149	0xbb97a860	-0.004628226
150	0xbe3909d7	-0.1807016
151	0xbdcec47d	-0.10096071
152	0xbdb6a550	-0.089182496
153	0xbe921e47	-0.28538725
154	0x3cb96e80	0.022635698
155	0x3d7fd2d7	0.062456932
156	0xbe2c0dc8	-0.16802132
157	0xbd901248	-0.07034737
158	0x3c8014a5	0.015634844
159	0xbe0fc7c5	-0.1404105
160	0xbe0fc420	-0.1403966
161	0xbb841ba0	-0.0040316135
162	0x3e20d03f	0.1570444
163	0xbe30ad98	-0.17253721
164	0x3db372aa	0.08762105
165	0xbe275420	-0.16340685
166	0xbe3135a5	-0.1730562
167	0xbe8a0027	-0.2695324
168	0x3e025f06	0.12731561
169	0x3df43008	0.11923224
170	0xbd9a50d0	-0.07534945
171	0x3caea2d1	0.021317871
172	0x3e141031	0.14459302
173	0xbd3c8c20	-0.04603207
174	0x3d3fd421	0.04683316
175	0xbe3d9780	-0.18514824
176	0xbe3a0356	-0.18165335
177	0xbe518d5a	-0.20464078
178	0x3d627b20	0.055293202
179	0xbe1c93d7	-0.15290771
180	0xbe8c1f3a	-0.27367574
181	0xbdaf7b2e	-0.085684165
182	0xbe5e5795	-0.21713097
183	0x3979c400	0.00023819506
184	0x3d32a1a2	0.043611176
185	0xbe660959	-0.22464503
186	0x3ded0ce6	0.11574726
187	0xbdbdaf9e	-0.09262012
188	0xbe310a2a	-0.17289034
189	0x3e09ea05	0.13468178
190	0x3e0a2d6d	0.13493891
191	0xbca62208	-0.0202799
192	0xbe01ac2c	-0.12663335
193	0xbdb59fa4	-0.0886834
194	0x3cb86828	0.022510603
195	0xbd9a8d79	-0.07546515
196	0x3db43d32	0.088007346
197	0xbeb896fc	-0.36052692
198	0xbeaa2b83	-0.33236322
199	0xbe9a964e	-0.30192798
200	0xbc0d5913	-0.008627194
201	0xbdab1582	-0.08353712
202	0xbe540b75	-0.20707496
203	0xbe8b506b	-0.27209792
204	0x3c989e20	0.018630087
205	0xbea7ec0e	-0.32797283
206	0xbe674ee6	-0.22588691
207	0xbe0283bf	-0.1274557
208	0xbd81eee7	-0.06344395
209	0x3db8c8f8	0.09022707
210	0x3d8d8726	0.06910543
211	0xbcabb4d0	-0.020960242
212	0xbde02a56	-0.10945575
213	0x3d902ac6	0.070394084
214	0x3a9cfd67	0.0011977375
215	0xbe12016c	-0.14258355
216	0xbdc2fe73	-0.095211886
217	0xbe9831da	-0.29725534
218	0xbb931680	-0.004488766
219	0xbe334e56	-0.17510352
220	0xbe505280	-0.20343971
221	0xbd84632d	-0.06464229
222	0x3e208229	0.15674652
223	0x3e13230b	0.14368837
224	0x3e0b810f	0.1362345
225	0x3c226e80	0.009914041
226	0xbd6a6fc0	-0.05723548
227	0xbca8582e	-0.02054986
228	0xbdfa24ac	-0.12214026
229	0xbdf8b145	-0.121431865
230	0xbdc98773	-0.09840288
231	0xbda7045a	-0.08155127
232	0xbe09c531	-0.13454129
233	0x3dc44e2e	0.09585224
234	0x3dcf2763	0.10114934
235	0xbe02ed80	-0.12785912
236	0x3d432fd4	0.047653034
237	0xbd410a6c	-0.04712908
238	0xbd5649db	-0.052316528
239	0x3cdd96f8	0.027049527
240	0x3e0cf411	0.13764979
241	0x3bd15835	0.006388689
242	0xbde50db6	-0.11184256
243	0xbd823aef	-0.06358897
244	0x3d1f2856	0.038856827
245	0x3d61f39c	0.055163965
246	0x3c9a77ae	0.018855896
247	0xbcbf1f80	-0.02333045
248	0xbd559bc3	-0.0521505
249	0xbdb28619	-0.08716983
250	0xbdbef867	-0.09324723
251	0x3bf4af35	0.0074671754
252	0xbc26f1a8	-0.010189451
253	0x3e0a9d5b	0.13536589
254	0xbd67075b	-0.0564035
255	0x3c4f57e0	0.012655228

conv_encoder.output.0.bias f4 [64]
0	0xbdb81e5f	-0.08990168
1	0xbd4f34d9	-0.05058751
2	0x3e00ab18	0.12565267
3	0xbdbb3646	-0.09141211
4	0xbe92553c	-0.28580654
5	0xbe3fdd1f	-0.18736695
6	0xbe456f3b	-0.19280712
7	0xbda1e5e8	-0.07905179
8	0xbda7184b	-0.081589304
9	0xbe182189	-0.14856543
10	0x3e23973b	0.15975659
11	0x3dca297e	0.09871195
12	0x3e7cf412	0.2470248
13	0xbbd3d511	-0.0064646085
14	0x3e7921a3	0.24329238
15	0xbe87d401	-0.26528934
16	0x3e207c2d	0.1567237
17	0x3e645c56	0.22300848
18	0x3dd9530e	0.106115445
19	0x3cbfe4f8	0.02342461
20	0x3e6f3930	0.23361659
21	0xbe61b534	-0.2204178
22	0xbe0419f2	-0.12900522
23	0xbdf85957	-0.12126415
24	0xbea74831	-0.32672265
25	0xbe189512	-0.14900616
26	0xbe26e76c	-0.16299218
27	0xbdd58074	-0.10424891
28	0xbd1f2f4a	-0.038863458
29	0x3db1d449	0.08683068
30	0xbdb6427a	-0.08899398
31	0x3e144465	0.14479215
32	0x3c97190d	0.018444562
33	0x3ead532b	0.33852515
34	0x3e664322	0.22486547
35	0xbdb2ee71	-0.08736885
36	0xbebdbd89	-0.37058666
37	0x3daf63b0	0.08563936
38	0x3e0aa4ea	0.13539472
39	0xbe787f3f	-0.2426729
40	0x3d1465ea	0.036230005
41	0xbe94a4ef	-0.29032084
42	0x3e57871b	0.21047632
43	0x3e2bf901	0.16794206
44	0x3e603d8e	0.21898481
45	0x3e39d351	0.18147017
46	0xbbe29270	-0.0069144294
47	0x3e8dbff0	0.276855
48	0xbe5d8b75	-0.2163523
49	0x3c7b17ae	0.01532547
50	0xbdc28823	-0.09498622
51	0xbe8e61f5	-0.2780911
52	0xbd0b5808	-0.0340195
53	0x3d8b51ff	0.06802749
54	0xbd589b65	-0.05288257
55	0xbe412655	-0.18862279
56	0xbdc5415b	-0.09631606
57	0xbce32470	-0.027727336
58	0xbdcc03ea	-0.09961684
59	0x3e248da5	0.16069658
60	0xbe9962fa	-0.29958326
61	0x3d024ef8	0.03181359
62	0xbe0720c0	-0.13196087
63	0xbe8c844a	-0.2744468

conv_encoder_in_decoder.conv1.0.weight f4 [4, 1, 3]
0	0xbdc2edef	-0.095180385
1	0x3f052df4	0.52023244
2	0x3f0447f0	0.5167227
3	0x3ea656ef	0.324882
4	0x3f1b1160	0.6057339
5	0xbe8ce791	-0.2752042
6	0x3e770c61	0.24125816
7	0x3eab2bc9	0.33431843
8	0xbf1e2769	-0.61778885
9	0xbf2539d2	-0.6454135
10	0x3d334355	0.043765385
11	0xbe323df4	-0.17406446

conv_encoder_in_decoder.conv1.0.bias f4 [4]
0	0xbee912c3	-0.45522127
1	0xbec9e25a	-0.39430505
2	0x3eafea74	0.3435856
3	0x3e623e8d	0.22094174

conv_encoder_in_decoder.conv2.0.weight f4 [8, 4, 3]
0	0xbcca6cc3	-0.024710065
1	0xbe9a566c	-0.3014406
2	0x3e85f7a5	0.261655
3	0xbe436958	-0.19083154
4	0x3de48974	0.111590296
5	0xbd0e2d70	-0.0347113
6	0xbc865fab	-0.01640304
7	0x3ded6135	0.115908064
8	0xbdd1524d	-0.10220776
9	0xbd96de97	-0.073666744
10	0x3e6ba674	0.23012716
11	0xbe53e8fc	-0.20694345
12	0x3e5b5193	0.21417837
13	0xbc7b752d	-0.015347761
14	0x3cb98943	0.02264846
15	0x3ea32f0f	0.3187184
16	0x3ef24ff9	0.4732664
17	0xbe069a86	-0.13144884
18	0x3e38d235	0.18048938
19	0xbe2ecbac	-0.17069882
20	0x3e2e78d9	0.17038287
21	0x3e5bea0f	0.21476005
22	0x3f0cefed	0.550536
23	0x3ed41121	0.41419318
24	0x3e21dd09	0.15806974
25	0x3e56b373	0.20966892
26	0x3e0a0b46	0.13480863
27	0x3d22a6cd	0.039709855
28	0x3f17c928	0.59291315
29	0x3ebb7a7e	0.36616892
30	0xbdac5bd8	-0.08415955
31	0x3e86f42c	0.26358163
32	0xbd129448	-0.035785943
33	0x3dd273f9	0.10276026
34	0xbc802058	-0.015640423
35	0x3efb75b2	0.49113232
36	0x3d9bacf2	0.07601346
37	0x3ea357ff	0.31903073
38	0xbe0e31c8	-0.13886178
39	0x3e3f5727	0.1868559
40	0x3e8428df	0.25812432
41	0x3e81940a	0.25308257
42	0x3e4946e6	0.19655952
43	0x3e06bbf2	0.13157633
44	0xbe11285d	-0.14175554
45	0xbe1c2201	-0.15247346
46	0xbda01834	-0.078171164
47	0x3ddb3a61	0.10704494
48	0x3ebd03a6	0.36916846
49	0xbd917807	-0.071029715
50	0x3e9028ab	0.28156027
51	0x3ed0052a	0.4062894
52	0x3ea5479c	0.32281196
53	0xbd930815	-0.07179276
54	0xbdf75a03	-0.12077715
55	0xbe2ef57b	-0.17085831
56	0x3dc03774	0.09385577
57	0x3d9e18ef	0.077195995
58	0xbda61ccd	-0.08110962
59	0x3f002381	0.50054175
60	0x3e5f31f2	0.21796396
61	0x3e77ed9f	0.24211739
62	0x3d7e93f3	0.062152814
63	0x3ebc3b2a	0.3676389
64	0x3ef0646e	0.46951622
65	0x3df88f4d	0.121367075
66	0xba86440f	-0.0010243672
67	0xbe7bea68	-0.24601138
68	0xbd504e7e	-0.050856106
69	0x3edb5464	0.42837822
70	0xbd8dd2bf	-0.06924962
71	0x3e2b513a	0.16730204
72	0x3ea6e933	0.32599792
73	0x3dcf4dc9	0.10122258
74	0x3dfd26de	0.12360929
75	0x3e561731	0.20907284
76	0x3e9beb76	0.3045308
77	0x3ed68151	0.41895536
78	0xbd850de8	-0.06496793
79	0xbe071321	-0.13190891
80	0x3db312d5	0.08743826
81	0x3c2de401	0.010613442
82	0xbd2eb063	-0.042648684
83	0x3e8d4979	0.27595118
84	0xbdc6b1a3	-0.0970185
85	0x3e194411	0.14967372
86	0xbe820772	-0.25396305
87	0xbdafb1fd	-0.085788704
88	0xbdf87ba0	-0.121329546
89	0x3e84f771	0.25970033
90	0x3ddcb532	0.10776748
91	0xbe637399	-0.22212066
92	0x3dd5e552	0.1044413
93	0xbbc89ac0	-0.0061219633
94	0x3e874d30	0.26426077
95	0x3e23220c	0.15930957

conv_encoder_in_decoder.conv2.0.bias f4 [8]
0	0xbe472031	-0.19445874
1	0x3e399231	0.18122174
2	0xbdbcd991	-0.09221185
3	0xbddbf107	-0.10739332
4	0xbcad9471	-0.021188946
5	0x3e77e792	0.24209431
6	0x3d16f758	0.03685698
7	0xbe926ac4	-0.2859708

conv_encoder_in_decoder.conv3.0.weight f4 [16, 8, 3]
0	0xbd85736a	-0.06516154
1	0x3e42a3ba	0.19007769
2	0xbd935774	-0.07194415
3	0xbe00dd8f	-0.12584518
4	0xbe43e7ca	-0.1913139
5	0xbe0fad3a	-0.14030924
6	0xbdea93d9	-0.11453981
7	0x3d401df4	0.046903566
8	0x3d5bdd56	0.05367788
9	0x3e42c465	0.19020231
10	0x3e064e23	0.13115744
11	0xbcd07199	-0.025444793
12	0x3ddb3481	0.10703374
13	0x3deadf10	0.11468327
14	0xbe51a398	-0.20472562
15	0x3d96e800	0.07368469
16	0xbe2caee6	-0.16863593
17	0x3e051b54	0.12998706
18	0xbdbbb22a	-0.091648415
19	0x3d40c18d	0.047059584
20	0xbcf7b77f	-0.030238865
21	0x3dc1f324	0.094702035
22	0x3d020bc8	0.031749517
23	0xbe179fd4	-0.14807063
24	0x3da958c0	0.08268881
25	0x3df69a9c	0.12041208
26	0xbdd9b41f	-0.106300585
27	0xbe03e61f	-0.12880753
28	0xbe0a70eb	-0.13519637
29	0xbdc371bc	-0.095431775
30	0xbcd2d288	-0.025735155
31	0x3c7a0f60	0.015262455
32	0xbabcb500	-0.0014397204
33	0xbd5d2330	-0.053988636
34	0x3e01b606	0.12667093
35	0x3c30bdc0	0.010787427
36	0xbdf2bd5a	-0.11852522
37	0xbd5d4598	-0.054021448
38	0xbdf5c8b2	-0.1200117
39	0xbd8c1f69	-0.068419285
40	0xbe418535	-0.1889847
41	0x3d2197c0	0.03945136
42	0xbe2881f4	-0.16455823
43	0x3d932529	0.07184822
44	0x3e114553	0.14186601
45	0xbe1b7f82	-0.15185359
46	0xbddc9dbc	-0.10772273
47	0xbe252826	-0.16128597
48	0x3d2bee0a	0.04197506
49	0x3c7e6f65	0.015529488
50	0xbdf4ee80	-0.11959553
51	0x3ddae467	0.106880955
52	0x3d98f1e8	0.07468015
53	0xbe4de79a	-0.2010788
54	0x3e2c9202	0.16852573
55	0x3db15a8e	0.0865985
56	0x3e0924ee	0.13392994
57	0x3e752e66	0.23943481
58	0x3df14f84	0.117827445
59	0xbd1b8aa1	-0.037974004
60	0x3eb31a42	0.3498097
61	0x3d5023f8	0.050815552
62	0x3e170eb2	0.147517
63	0x3e11cccd	0.14238282
64	0x3e7e5513	0.2483714
65	0x3e6f0e57	0.23345314
66	0x3d402c6e	0.04691737
67	0x3e2c98ed	0.16855212
68	0xbdac52cd	-0.084142305
69	0xbd22afe8	-0.03971854
70	0xbd913f27	-0.070921235
71	0x3d6d5840	0.05794549
72	0xbe1627a4	-0.14663559
73	0x3ca493a9	0.020089941
74	0x3dbc991f	0.09208893
75	0x3d8eb305	0.06967739
76	0xbe0d7d89	-0.13817419
77	0x3e2b874e	0.16750833
78	0xbe682385	-0.226698
79	0xbdf4cfb1	-0.119536765
80	0x3e7c909b	0.24664538
81	0xbc990cbb	-0.018682828
82	0x3ce7c8ae	0.028293934
83	0xbbb21993	-0.0054351776
84	0x3df96769	0.12177927
85	0xbda8416d	-0.08215604
86	0x3d9f4b3e	0.07778023
87	0xbdbab5dd	-0.09116719
88	0xbe2da0e0	-0.169559
89	0xbe2345ca	-0.15944591
90	0xbe83103d	-0.25598326
91	0x3e4fd64b	0.2029659
92	0x3e104729	0.14089645
93	0xbd8562f6	-0.06513016
94	0xbc818f70	-0.015815467
95	0xbe36303f	-0.17791842
96	0xbe539776	-0.20663247
97	0xbe17e2fa	-0.14832678
98	0xbe579b83	-0.21055417
99	0x3e0f6e46	0.1400691
100	0xbd8f3e56	-0.069943115
101	0xbda99b14	-0.08281532
102	0xba927a57	-0.0011175376
103	0x3e6792ff	0.22614668
104	0x3de5e43d	0.112251736
105	0xbc9a0a29	-0.018803673
106	0x3e8e846c	0.27835405
107	0x3e61713d	0.22015853
108	0x3d7701ff	0.060304638
109	0x3ea95f43	0.3308049
110	0x3e1a71a1	0.15082408
111	0x3d642e92	0.055708475
112	0x3e0ba13a	0.13635722
113	0x3a23dcaf	0.0006250841
114	0x3e91ee44	0.28502095
115	0x3e4f9aa2	0.20273831
116	0xbd8af558	-0.06785077
117	0xbdfe6843	-0.1242223
118	0xbe56b609	-0.20967878
119	0x3d85d81c	0.0653536
120	0xbe283246	-0.16425428
121	0xbe2eb2bd	-0.1706037
122	0xbe0b64c0	-0.13612652
123	0xbe5c58c7	-0.21518241
124	0xbd217a0c	-0.039423034
125	0x3e10c558	0.1413778
126	0x3e8b810c	0.27246892
127	0x3eb80f02	0.3594895
128	0xbe573310	-0.21015573
129	0x3d015f9f	0.031585332
130	0x3dc14b63	0.09438207
131	0xbe33b6a6	-0.17550144
132	0x3d22893c	0.03968166
133	0x3e62e4b3	0.22157554
134	0xbe4cb729	-0.19991745
135	0x3e133501	0.14375688
136	0x3e680685	0.22658737
137	0xbd97dfb5	-0.074157156
138	0x3e81c93a	0.25348836
139	0xbd79bb6d	-0.06096976
140	0xbe2a67a4	-0.16641098
141	0xbe01113a	-0.12604228
142	0xbcf65803	-0.030071264
143	0xbda64c29	-0.08119995
144	0xbded5c9f	-0.11589932
145	0xbe49e768	-0.1971718
146	0xbd9b0232	-0.07568778
147	0x3cb8976a	0.022533137
148	0xbd26ded7	-0.04073986
149	0xbe47a9e8	-0.19498408
150	0x3e1825bf	0.14858149
151	0x3e160d92	0.14653614
152	0xbe030ea2	-0.1279855
153	0x3c841116	0.016121428
154	0x3e05eb83	0.13078122
155	0xbe3f5146	-0.18683347
156	0xbe3d86ed	-0.18508501
157	0x3dde356b	0.108500324
158	0xbc1517c9	-0.009099909
159	0x3d76a623	0.060217034
160	0xbdb7a671	-0.08967293
161	0x3d038f4d	0.032119084
162	0x3e05c114	0.13061935
163	0xbd60205d	-0.054718364
164	0xbd9139ec	-0.07091126
165	0xbe470790	-0.19436479
166	0xbd01041c	-0.03149806
167	0x3e047366	0.12934646
168	0xbe458a8f	-0.19291137
169	0xbc812bb8	-0.015767917
170	0x3e185d3e	0.14879319
171	0xbd6ea214	-0.05826004
172	0xbd9a7472	-0.075417414
173	0xbd7c3128	-0.061570317
174	0xbda95fd9	-0.082702346
175	0x3cc82338	0.024430856
176	0xbe493f91	-0.19653155
177	0x3d9fc044	0.07800344
178	0xbd5328f8	-0.051552743
179	0xbcd4e670	-0.025988787
180	0xbc61a440	-0.01377207
181	0x3de988fc	0.11403081
182	0xbe01d678	-0.1267947
183	0xbe3e3529	-0.18574966
184	0xbe17325c	-0.14765304
185	0xbe19565e	-0.14974353
186	0xbdcb8897	-0.09938162
187	0x3e2516f8	0.16122043
188	0xbe21b416	-0.15791354
189	0xbdf5bd41	-0.11998988
190	0xbe2a657c	-0.16640276
191	0xbdd202ce	-0.10254441
192	0xbca9e5a9	-0.020739393
193	0xbe157bba	-0.14597979
194	0xbc3cde43	-0.011527601
195	0x3db3712e	0.08761822
196	0xbcd7a4e4	-0.026323743
197	0x3dcb3bf5	0.09923545
198	0x3e80a1df	0.25123498
199	0x3ed52278	0.4162786
200	0x3e259d0e	0.16173193
201	0x3ea83a29	0.32856873
202	0x3ea742ea	0.3266824
203	0x3e63f9ed	0.22263308
204	0x3eb1fe24	0.34764206
205	0x3de23f52	0.11047234
206	0x3dbe9c3b	0.09307142
207	0x3e2079ce	0.15671465
208	0x3e100670	0.14064956
209	0x3e81ef74	0.25378
210	0x3dc2053a	0.09473653
211	0x3d99f9b7	0.075183325
212	0x3e7d8b08	0.24760067
213	0x3bd80420	0.0065922886
214	0x3e3c9f02	0.18420032
215	0xbdd53bf7	-0.10411828
216	0xbda63169	-0.08114893
217	0xbc7e97e1	-0.01553914
218	0x3dc01e4b	0.09380778
219	0xbe44a2ac	-0.1920268
220	0xbd9046e2	-0.0704477
221	0x3e1109ed	0.14163943
222	0x3e3a273c	0.18179029
223	0x3e95543a	0.29165822
224	0x3db7da2b	0.08977159
225	0xbc964c85	-0.018347034
226	0xbcb2230b	-0.021745225
227	0x3c3d207e	0.011543391
228	0x3d6aab6d	0.05729239
229	0x3eac958b	0.33707842
230	0x3e8d1db4	0.27561724
231	0xbdbe7a68	-0.09300691
232	0x3e763dbd	0.24046989
233	0x3df429f2	0.11922063
234	0x3e0932c4	0.13398272
235	0xbc688d0c	-0.014193784
236	0x3e5fde38	0.21862113
237	0xbe13714c	-0.14398688
238	0x3e10c031	0.14135815
239	0xbde32c15	-0.11092392
240	0x3db18f30	0.08669889
241	0xbd973bec	-0.07384476
242	0x3e07cbc0	0.13261318
243	0xbe2f4d3b	-0.17119305
244	0xbd230530	-0.03979987
245	0xbd61accc	-0.055096433
246	0xbdf9fae0	-0.12206054
247	0xbdcd5785	-0.10026459
248	0xbd6a9ca0	-0.057278275
249	0x3cad6328	0.021165445
250	0x3e145daa	0.14488855
251	0xbd096490	-0.03354317
252	0x3e4ce276	0.20008263
253	0xbdc6ef8c	-0.09713659
254	0xbdd73768	-0.10508615
255	0xbc2e7380	-0.0106476545

conv_encoder_in_decoder.conv3.0.bias f4 [16]
0	0x3d587e59	0.05285487
1	0x3de4a1c6	0.11163668
2	0xbd80391c	-0.06260893
3	0x3d969dc1	0.07354308
4	0x3e1b3c2e	0.15159675
5	0x3df2e102	0.11859323
6	0xbe44fe62	-0.19237664
7	0xbd980f26	-0.07424764
8	0x3860e0fb	5.361529e-05
9	0x3ded8055	0.11596743
10	0xbd0c40a0	-0.03424132
11	0x3d8ee27f	0.069767945
12	0x3d309cd5	0.043118317
13	0xbe137143	-0.14398675
14	0xbe27a50a	-0.16371551
15	0x3e2b1f82	0.16711238

conv_encoder_in_decoder.conv4.0.weight f4 [32, 16, 3]
0	0xbb531240	-0.0032206923
1	0x3dd12a52	0.1021315
2	0xbe101ec6	-0.14074239
3	0xbd61a9b4	-0.055093482
4	0x3dcf6bc0	0.101279736
5	0xbc64f2e0	-0.013973922
6	0x3d47221c	0.048616514
7	0xbdf7a202	-0.120914474
8	0x3e0fdbfc	0.14048761
9	0xbd9389ec	-0.07204041
10	0xbbef2700	-0.0072983503
11	0xbdc19e7e	-0.09454058
12	0xbd8326c0	-0.06403875
13	0xbdfd6abd	-0.12373874
14	0xbe015e77	-0.12633692
15	0xbcf18fe0	-0.02948755
16	0xbd826333	-0.06366577
17	0x3dda5c9c	0.10662195
18	0xba371100	-0.0006983429
19	0x3de5dc30	0.11223638
20	0xbcc60ab8	-0.024175033
21	0x3cfadad8	0.030621931
22	0x3e0df2f8	0.13862216
23	0xbde4bce9	-0.11168844
24	0xbd800e92	-0.06252779
25	0x3dfcb638	0.12339443
26	0xbd078b50	-0.033091843
27	0xbd1f385e	-0.038872115
28	0x3c3dc950	0.011583641
29	0xbd9eb13c	-0.077486485
30	0x3c2a12c0	0.010380447
31	0xbd75b900	-0.059990883
32	0x3d3b8ddc	0.045789585
33	0xbcfaff54	-0.030639328
34	0xbd46633a	-0.048434474
35	0xbd5eb618	-0.054372877
36	0x3d1999b8	0.037500113
37	0x3d945876	0.07243435
38	0xbe07204e	-0.13195917
39	0xbdce299e	-0.100665316
40	0xbe0dd90e	-0.13852331
41	0x3d89fc8c	0.067376226
42	0x3dddb208	0.108249724
43	0xbe0e0210	-0.13867974
44	0x3d19b0c0	0.037522078
45	0x3cefcc50	0.029272228
46	0xbd9ea160	-0.077456236
47	0x3cff7670	0.031184405
48	0x3de3eed4	0.11129537
49	0x3e10f960	0.14157629
50	0x3d7fa71c	0.062415227
51	0xbcea745c	-0.028619938
52	0xbda8314e	-0.08212529
53	0xbd612a8a	-0.05497221
54	0xbcd583fe	-0.026063915
55	0xbd10220f	-0.03518873
56	0x3da79be3	0.0818403
57	0xbe1c541d	-0.15266462
58	0xbc0f040e	-0.008728994
59	0xbd8d7b8f	-0.069083326
60	0xbc1322ba	-0.008980447
61	0x3dee535c	0.11636993
62	0xbc83e750	-0.01610151
63	0xbd45709d	-0.0482031
64	0xbd90d68a	-0.0707217
65	0xbe11c7a5	-0.14236315
66	0xbe05e8ea	-0.13077131
67	0x3d80ccc8	0.06289059
68	0xbdb483e4	-0.08814219
69	0x3da7d3f0	0.08194721
70	0xbd279d48	-0.04092148
71	0x3d554acc	0.052073285
72	0x3da68bdf	0.08132147
73	0x3b19b63e	0.0023454572
74	0x3d4959e5	0.049157996
75	0x3df96056	0.12176578
76	0xbd3c7d2c	-0.04601781
77	0x3db2f17b	0.08737465
78	0xbdf89c2c	-0.121391624
79	0x3e075766	0.13216934
80	0xbd41ec9a	-0.04734478
81	0xbbb464c5	-0.0055051767
82	0x3da5ae49	0.08089883
83	0x3c2c6cbe	0.010523973
84	0x3dd9c228	0.106327355
85	0xbdad7af7	-0.08470719
86	0xbdcd38ce	-0.100206
87	0x3dddc27e	0.10828112
88	0xbde18a24	-0.11012676
89	0x3d983c9a	0.07433434
90	0x3e048453	0.12941103
91	0x3dd0a7e8	0.101882756
92	0xbd800b9f	-0.062522165
93	0xbcbf5b1c	-0.023358874
94	0xbe052f7b	-0.13006394
95	0xbd9dd5c3	-0.077067874
96	0xbcf4bbf4	-0.02987478
97	0xbdc34df0	-0.0953635
98	0x3daa8996	0.08327024
99	0x3d7c3e77	0.06158301
100	0xbd292e74	-0.041304067
101	0xbcb9f518	-0.022699878
102	0x3dd3f33b	0.10349127
103	0xbd697532	-0.05699653
104	0x3db5bf4b	0.08874377
105	0x3d911547	0.070841365
106	0xbdca7434	-0.09885445
107	0xbe4e86a4	-0.20168549
108	0x3dae685b	0.08515998
109	0xbe0254a0	-0.12727594
110	0x3d9b4d12	0.07583059
111	0xbe21ca93	-0.15799932
112	0xbd267df1	-0.04064745
113	0x3bc3f53c	0.005980162
114	0xbd0ba796	-0.03409537
115	0x3de68404	0.11255649
116	0xbe060206	-0.1308671
117	0xbd75ab2e	-0.059977703
118	0xbcba2094	-0.022720613
119	0x3de265d0	0.110545754
120	0x3c857523	0.016291207
121	0x3d3e0ba4	0.04639782
122	0x3c7e5f17	0.015525601
123	0x3da9aac8	0.08284527
124	0xbdc63455	-0.0967795
125	0xbdbe2b14	-0.0928556
126	0xbca25e1c	-0.019820265
127	0x3d6892c4	0.05678059
128	0xbd2d5f2c	-0.04232709
129	0x3d1569ba	0.03647778
130	0x3cbd2ca6	0.02309258
131	0x3c8ec338	0.017427072
132	0x3d8d2222	0.06891276
133	0xbcd91b72	-0.026502345
134	0x3d060bff	0.032726284
135	0xbd9281b0	-0.07153642
136	0xbe36daf7	-0.17856966
137	0x3d210a7b	0.039316636
138	0x3cb96985	0.022633323
139	0x3dc2c6e2	0.0951059
140	0x3c8cc7a7	0.017185045
141	0xbd6b7da5	-0.05749287
142	0xbe1a0365	-0.15040357
143	0xbe3ad4ae	-0.18245193
144	0x3ced4ce8	0.028967336
145	0x3df12784	0.11775115
146	0xbc37d700	-0.011220694
147	0xbd40df6e	-0.04708808
148	0x3d93e272	0.072209254
149	0xbd8f1d62	-0.06988026
150	0x3d509d80	0.050931454
151	0xbdefe04f	-0.11712705
152	0xbe05f2c2	-0.13080886
153	0xbdac745a	-0.0842063
154	0xbcca73cc	-0.02471342
155	0x3d475ab4	0.048670486
156	0x3d95912a	0.073030785
157	0xbdbb1a1d	-0.0913584
158	0xbcf2d798	-0.029643819
159	0x3d42aa00	0.047525406
160	0xbd026136	-0.03183099
161	0x3b0e2680	0.0021690428
162	0x3dbf6016	0.09344499
163	0xbd2a8daa	-0.041639008
164	0x3d9866e0	0.07441497
165	0x3df03090	0.117280126
166	0x3d45164c	0.048116967
167	0xbcd21a04	-0.02564717
168	0xbdbb2ba4	-0.09139183
169	0xbdc360d4	-0.09539953
170	0xbce5be48	-0.028044835
171	0x3d38c304	0.045107856
172	0x3da1abb2	0.078940764
173	0xbbe42900	-0.0069628954
174	0x3dee35ec	0.116313785
175	0xbd6a2920	-0.057168126
176	0x3cebc9c8	0.02878274
177	0xbd97571b	-0.07389661
178	0x3d1edcf8	0.03878495
179	0x3dfc49d4	0.12318769
180	0x3d4f288c	0.050575778
181	0x3c1e7330	0.0096710175
182	0xbd5994c4	-0.05312039
183	0xbdf2875f	-0.11842226
184	0xbdca48c4	-0.0987716
185	0xbdfd90e8	-0.12381154
186	0x3dd21940	0.10258722
187	0xbd76a318	-0.060214132
188	0xbcb0eb64	-0.021596618
189	0xbe04722f	-0.12934183
190	0xbd24da16	-0.040247045
191	0x3dfb6e0c	0.12276849
192	0x3cd96308	0.02653648
193	0xbc2664fa	-0.010155911
194	0x3db972f5	0.090551294
195	0x3deca98b	0.11555775
196	0x3de0561b	0.10953923
197	0xbde60d5a	-0.11233015
198	0x3d2e3b70	0.042537153
199	0xbda79249	-0.081821986
200	0xbd71718a	-0.05894617
201	0x3e1879c1	0.14890195
202	0xbd9d8e8b	-0.076932035
203	0xbd2cdaae	-0.042200737
204	0x3dd1c912	0.10243429
205	0x3e3349b8	0.1750859
206	0xbdd0f071	-0.102021106
207	0xbd98f997	-0.074694805
208	0xbcaa6199	-0.020798491
209	0x3e1af8a9	0.15133919
210	0x3dac44e4	0.08411577
211	0x3db84942	0.08998348
212	0x3dbd693c	0.092485875
213	0xbd13f50c	-0.036122367
214	0x3dd9f588	0.106425345
215	0xbb84e7a0	-0.004055932
216	0x3d47d719	0.048789117
217	0xbafd77eb	-0.0019338107
218	0x3dcf0a67	0.10109406
219	0x3dcd0a74	0.100117594
220	0x3c9e8218	0.019349143
221	0x3e2a5585	0.16634186
222	0xbd191d48	-0.03738144
223	0x3d15a3e0	0.036533237
224	0x3e063e08	0.131096
225	0x3d8853bc	0.06656596
226	0xbd5a51a6	-0.053300522
227	0xbd370a7d	-0.044687737
228	0x3d7e10af	0.06202763
229	0x3d098a0b	0.033578914
230	0x3d426fa2	0.047469743
231	0x3e036505	0.12831505
232	0x3db2dbee	0.087333545
233	0xbd2ad57b	-0.041707497
234	0xbdf15992	-0.11784662
235	0x3e0bbbfc	0.13645929
236	0xbc822c00	-0.015890121
237	0xbcbf5813	-0.023357427
238	0xbd904348	-0.07044083
239	0x3e347c7b	0.1762561
240	0x3d817678	0.06321424
241	0xbdbbd9fc	-0.091724366
242	0xbdbb781c	-0.091537684
243	0x3de14af5	0.11000625
244	0x3d6de7d5	0.05808242
245	0xbce1d584	-0.027567632
246	0xbdecb4c2	-0.11557914
247	0x3e4bdaf0	0.19907737
248	0xbc845078	-0.016151652
249	0x3d6dc6b3	0.058050822
250	0xbddd147d	-0.107949235
251	0xbe1ad61a	-0.15120736
252	0xbe1a31bf	-0.15058039
253	0x3e2232d6	0.15839705
254	0x3e2b5fe2	0.16735795
255	0xbe8071ae	-0.2508673

conv_encoder_in_decoder.conv4.0.bias f4 [32]
0	0xbd86adcc	-0.06576118
1	0x3d589ac5	0.052881975
2	0x3d59d697	0.053183164
3	0xbb934fc0	-0.004495591
4	0xbd711c30	-0.058864772
5	0x3db453d9	0.08805055
6	0x3db1a020	0.086731195
7	0x3d8bd112	0.06826986
8	0xbc91a383	-0.017778164
9	0x3aa8d8ba	0.0012881972
10	0xbca1d2e4	-0.01975388
11	0xbdb8112e	-0.08987652
12	0xbe21e763	-0.15810923
13	0xbd02dd94	-0.031949595
14	0x3d1867d4	0.037208393
15	0x3d27868a	0.04089979
16	0x3ba86723	0.005139248
17	0x3c035a86	0.008017188
18	0x3dc60a95	0.09669987
19	0xbce496d8	-0.02790396
20	0xbcccdbdc	-0.02500718
21	0xbb46afc0	-0.0030317158
22	0xbd5160b6	-0.05111762
23	0xbd82f721	-0.06394792
24	0xbdeb5359	-0.11490507
25	0xbde3ac56	-0.11116855
26	0x3d076f30	0.03306502
27	0x3daa9ac5	0.08330301
28	0x3ca816c0	0.02051866
29	0x3c9fced0	0.019507796
30	0xbd5dc96c	-0.05414717
31	0xbd690d0c	-0.056897208
