Original/heat/lig_seed42_final.pt (torch, 468690 bytes, 41 tensors)

conv_encoder.conv1.0.weight f4 [4, 2, 3]
000000 1a fb a6 3e 9f 71 b3 3e 11 40 ba bd fa 41 cb 3e
       0.3261345 0.35047624 -0.09094251 0.39698774
000010 df 6c 90 bd 3d 54 cd 3d 08 f1 4a be d2 a3 76 3e
       -0.070520155 0.10025833 -0.19818509 0.2408593
000020 04 a5 b7 3e 7c 3d 98 be 7d e0 b6 3e 17 dc a1 3d
       0.35868084 -0.2973441 0.35718146 0.07903307
000030 8a 6b a1 3e c6 a1 8b 3d 39 cc 56 3e 26 c4 27 bd
       0.31527358 0.06817965 0.20976342 -0.040958546
000040 07 31 a9 3e 22 f3 97 3d 22 29 43 be 58 1e d5 3d
       0.33045217 0.07419421 -0.1905866 0.10406178
000050 f6 9b 40 be 18 1a 44 bd 00 cb 29 be ee a8 8a 3e
       -0.18809494 -0.047876447 -0.16581345 0.27082008

conv_encoder.conv1.0.bias f4 [4]
000000 cb 09 9a be 98 1e 49 be e8 6b c7 bd 16 5c 7b be
       -0.30085596 -0.19640577 -0.09737378 -0.24546847

conv_encoder.conv2.0.weight f4 [8, 4, 3]
000000 20 33 df 3c 0d ec 91 be 1c 29 82 3e 0b 1b 7b be
       0.027246058 -0.28500405 0.2542199 -0.24522035
000010 81 d4 5c 3e 8a 1d 2c 3d ac 9e 88 bd cf f4 2e 3e
       0.21565439 0.04202036 -0.06670889 0.17085575
000020 57 ce 1c 3d 30 d6 6e 3e d8 42 01 3d 62 73 ba bd
       0.03828272 0.23323894 0.031557888 -0.09104039
000030 7c 11 9d 3d 8d 4e a2 bd 2d 7e e9 3d af 42 83 3e
       0.076693505 -0.079251386 0.11401019 0.25636813
000040 27 0c 24 3e 94 91 07 be 89 47 22 3e 0e 40 2e 3d
       0.16020261 -0.13239127 0.15847601 0.042541556
000050 94 78 08 3e f6 2b 34 be 64 4f 92 be 3e 6b e4 bd
       0.13327247 -0.17594895 -0.28576195 -0.11153267
000060 5f 01 5e be 90 a4 76 3e 06 45 b2 3d 05 9e fc 3d
       -0.2168021 0.24086213 0.087045714 0.12334827
000070 b5 bd c3 3d ae c1 e8 ba d3 5c 6c 3e f7 75 4d be
       0.09557668 -0.0017757916 0.23082285 -0.20064531
000080 81 1c b9 3c db c2 49 be bc 4c b6 3d e2 99 cb bd
       0.0225966 -0.19703238 0.08901355 -0.0994146
000090 f2 26 ac 3d fa d7 8d bd 81 55 64 3e d9 06 3a be
       0.08405866 -0.0692596 0.22298242 -0.18166675
0000a0 75 e7 41 be 1f b6 42 be ff 18 80 3e a8 56 a7 3d
       -0.1893595 -0.19014786 0.2501907 0.08170825
0000b0 b5 fb 83 3e 54 f4 73 be d7 99 92 be f4 44 67 be
       0.25777975 -0.23823673 -0.28632995 -0.22584897
0000c0 4e de 24 be 62 e3 1f 3e 5f 6b 0a 3e 33 f6 8e 3e
       -0.16100428 0.15614083 0.13517521 0.2792221
0000d0 71 3d f6 bd 31 37 32 be e2 44 4b 3e 2f 27 8d bd
       -0.12023438 -0.17403866 0.19850495 -0.06892239
0000e0 97 19 5a 3e 32 4b 8c bd 44 19 29 3e a1 ac 65 be
       0.21298824 -0.0685028 0.16513544 -0.22429134
0000f0 af 48 0f be bf 98 bc 3d ae 3d 82 3d b5 46 91 bd
       -0.1399257 0.092088215 0.06359421 -0.070935644
000100 14 2c 31 3e b2 1d 4a 3e f9 07 54 be fe db 1c be
       0.1730197 0.1973789 -0.20706166 -0.15318295
000110 60 17 88 3e 0a 7e c7 bd aa 97 d1 bd 19 03 8f be
       0.26580334 -0.09740837 -0.10234006 -0.2793205
000120 c2 fd 2e be f8 a1 78 3d 73 cb 63 bd a9 df 61 be
       -0.17088988 0.06070134 -0.055613946 -0.22057976
000130 bc 1e 16 bc 9f a3 4e be 9d 23 81 be da a0 29 be
       -0.009162601 -0.20179604 -0.25222483 -0.16565266
000140 f7 f2 84 be ce 38 3c be 6e be 93 3e 08 54 5f 3d
       -0.25966617 -0.18381044 0.28856224 0.054523498
000150 55 c3 a4 3d 71 eb 8e be b3 85 2f be bf ef d8 bd
       0.08045069 -0.27914003 -0.17140846 -0.10592603
000160 86 8b 8d 3d 48 21 6d be ee f4 f3 bd 8b ae 2b be
       0.069113776 -0.23157227 -0.11911951 -0.16765802
000170 b4 12 19 3c 6a fd db bd 60 df a3 bc 42 4f 48 be
       0.009342838 -0.10741694 -0.020003974 -0.19561484

conv_encoder.conv2.0.bias f4 [8]
000000 04 1c 51 be d4 53 43 be ef 8a be bd f2 23 77 be
       -0.20420843 -0.19074947 -0.09303843 -0.24134806
000010 22 90 94 3e 5b 72 72 bd 2c 7f 74 3e 51 03 ef 3d
       0.29016215 -0.05919109 0.23876637 0.116705544

conv_encoder.conv3.0.weight f4 [16, 8, 3]
000000 0a 00 31 be 92 0f 18 3e e8 0b 66 bd cd f3 ad bd
       -0.17285171 0.1484969 -0.0561637 -0.08493767
000010 5f cf 36 be cc b5 53 be 04 65 3f 3d dc 4b 61 bd
       -0.17852543 -0.20674819 0.046727195 -0.055003986
000020 6a 6e 9f 3d cc 3c 33 be df ab 11 3e 9e 13 1d be
       0.07784732 -0.17503661 0.1422572 -0.15339515
000030 df 8c ab bc b0 8d 6a 3d da 07 f4 3d 93 d0 22 3e
       -0.020941196 0.05726403 0.1191556 0.15899877
000040 4e e3 41 3e b7 2e 27 be a2 fb 80 3d 84 d5 a2 bd
       0.18934366 -0.16326414 0.06297995 -0.07950881
000050 a9 7f 9b bc b9 af 0b be fa 63 3e 3e c2 f2 19 be
       -0.018981772 -0.13641252 0.18592826 -0.15034011
000060 e4 6c df 3d 04 eb 92 3d bc d8 87 3d df 03 e2 bd
       0.10909441 0.07173732 0.06633136 -0.110358946
000070 ec fd 3d 3e 50 bb 37 3d 28 1c d7 3c e0 33 38 be
       0.18553895 0.04485637 0.026258543 -0.17988539
000080 b4 7d af 3d b8 dc fa bc 64 84 bf bd 2a 8a 33 3e
       0.08568898 -0.030622825 -0.093514234 0.17533174
000090 e4 67 3a 3d 8e 4b e7 bd e9 96 d3 bd 80 b6 1f bc
       0.045509234 -0.11293708 -0.10331518 -0.009748101
0000a0 bc 6b e9 3d 60 a6 55 bd d6 86 ee bd 2e 28 8f bd
       0.11397502 -0.05216062 -0.11646812 -0.069900855
0000b0 ea 27 1c be c0 16 95 3d d4 ca 21 3e 66 c8 44 be
       -0.15249601 0.0727973 0.15800029 -0.19217071
0000c0 e0 2e 42 3d c6 be c2 3d b0 9b 17 3d 65 47 6b bd
       0.047407985 0.095090434 0.03701371 -0.057441134
0000d0 c7 fd 00 3e 01 42 10 3e 43 d0 b4 3d 1d 93 94 bc
       0.12596808 0.14087678 0.08828785 -0.018136555
0000e0 a8 50 24 bd 29 d1 f8 3c 8e 74 b0 bc 74 3e 17 bd
       -0.040115982 0.030373173 -0.021539953 -0.036924794
0000f0 f9 7a 41 3e 2b 86 72 3e 9d 71 22 3d 84 ac 28 bd
       0.18894567 0.23683994 0.03965913 -0.04118015
000100 b8 7d e0 ba cb 25 4c bc d9 89 3c 3d f4 d3 5f 3d
       -0.0017127311 -0.012460182 0.0460299 0.054645494
000110 ca 28 23 be fc 25 a6 bd 48 06 30 3e 1e ff c7 3d
       -0.15933529 -0.08112714 0.17189896 0.097654566
000120 40 57 26 bc 00 5c ce bd 49 c3 ff bd 94 22 42 be
       -0.010152638 -0.10076141 -0.124884196 -0.18958503
000130 c7 a4 8f bd f8 25 90 3d 65 43 e3 3d 1f 52 a9 3d
       -0.07013851 0.07038492 0.11096839 0.082676165
000140 2c 69 38 be 2f 76 0f be 9c 11 2d bd 45 bd 47 3e
       -0.1800887 -0.14009927 -0.04225312 0.19505794
000150 d9 07 85 3d 55 9e 6b bc f5 4b f5 3d 3c 47 b2 bd
       0.064956374 -0.014381011 0.11977378 -0.08704993
000160 38 4c f4 bd cd a7 15 3e 72 29 5f bd ac 0b d7 bc
       -0.119286 0.14614792 -0.054482885 -0.026250683
000170 0d 47 4b be 8f cd 34 3e f8 5c 1e 3e 21 b2 44 3d
       -0.19851322 0.1765654 0.15465152 0.04802144
000180 17 bf 11 be 14 4b 4e be a2 c3 29 be 41 9f 15 3e
       -0.14233051 -0.20145828 -0.16578534 0.14611532
000190 c5 17 bc 3d e2 9e 29 3e 0e 84 ce 3d 23 3b 3a 3d
       0.09184221 0.16564515 0.10083781 0.045466553
0001a0 37 f8 04 bc 37 1e 25 be 1a 59 39 be 50 ba 49 be
       -0.00811582 -0.16124807 -0.18100396 -0.19699979
0001b0 4d 8e 9e 3d de df d9 bd 2e 77 41 bd 9e fa fa bd
       0.077419855 -0.106384024 -0.0472328 -0.12254833
0001c0 14 5b 18 bd 26 1e 13 be 39 94 08 be a4 ab 8a 3d
       -0.037196234 -0.1436697 -0.13337792 0.06771019
0001d0 d4 7b 78 bd fc 09 01 3e e8 1c 86 bd 20 55 19 be
       -0.060664967 0.12601465 -0.06548482 -0.14973879
0001e0 f0 84 13 bd 6c b4 c5 bd a4 cb 7f bd b7 19 36 be
       -0.03601545 -0.09653553 -0.062450066 -0.17783247
0001f0 79 c0 03 3e 5e cf ff bd 28 4c f2 3d d1 36 e4 3d
       0.12866391 -0.12490724 0.11830932 0.11143268
000200 5d 1f 22 3e 65 ef 11 be 75 8a 25 3e dc 10 a8 bd
       0.15832277 -0.14251478 0.16166098 -0.08206341
000210 ee de 05 3e 2e 14 80 3e 29 d0 d9 3c 18 c9 5e 3c
       0.13073322 0.25015396 0.026588516 0.013597749
000220 81 86 22 bd ce ef 2d be 85 13 07 3e 13 43 4a be
       -0.039679054 -0.1698601 0.1319104 -0.1975215
000230 bd 42 1c 3e d3 98 37 3e ac ac 45 3e fe 41 db bc
       0.15259834 0.17929392 0.1930415 -0.026764866
000240 ff bd 2b be 8b 50 be 3c b0 f0 e6 3d bd 48 48 be
       -0.16771697 0.023231765 0.11276376 -0.19558997
000250 88 b7 3f bc 46 7d bc bd bf 25 6d 3b 51 e2 84 bd
       -0.011701472 -0.092035815 0.0036185829 -0.06488479
000260 06 ad 7a bd 1c b3 ab bd 5b 1d 24 be e3 05 49 3e
       -0.061200164 -0.08383772 -0.16026823 0.19631152
000270 bf 88 4e 3e d7 26 0e bb a3 18 d6 3b 62 cc 95 bd
       0.20169352 -0.002169063 0.0065336986 -0.073143736
000280 86 9f 2a be e9 b7 53 be 96 5e b0 3d 1e 04 d8 bd
       -0.16662416 -0.20675625 0.08611791 -0.1054766
000290 40 2e 03 be 23 ae a4 bb ce 36 8b bd 99 9b 4c bd
       -0.12810612 -0.0050256415 -0.067975625 -0.049953077
0002a0 c0 ea d6 3b 2f 9d aa bc 44 f0 8f bd 39 2b ca bd
       0.006558746 -0.020826904 -0.07028249 -0.09871525
0002b0 e5 33 2e be 2d 48 32 3e 18 7e a3 bd ea bb 3f 3d
       -0.17011984 0.17410345 -0.07983035 0.04681007
0002c0 28 0e 83 bd 62 f3 b6 3c 66 c5 3b 3e b7 43 c4 3d
       -0.063991845 0.02233285 0.1833702 0.09583228
0002d0 2b 85 32 be 79 92 ac 3d 87 10 51 3e c6 6e 29 3d
       -0.17433612 0.08426375 0.20416461 0.041365407
0002e0 23 fd 1b 3e 9d 0f 50 3e 55 4a 09 3b 54 c3 5f 3d
       0.15233283 0.20318456 0.0020948846 0.05462964
0002f0 a7 6a 15 be 07 27 0e bc 94 cc 1a 3e 69 0a e0 3d
       -0.14591466 -0.008676297 0.15117103 0.109394856
000300 7e 44 04 be 10 f7 18 be bc d6 0e be 97 d7 4c be
       -0.12916753 -0.14937997 -0.13949102 -0.20004116
000310 fa 97 26 be 60 de 3e bd 24 ca 10 3e 31 0e 02 3d
       -0.16268912 -0.046598792 0.1413961 0.031751815
000320 e7 cf 15 be b1 d8 24 be ef 50 c4 3d 37 54 1a be
       -0.1463009 -0.16098286 0.09585749 -0.15071188
000330 cc 9f b0 bb ca 54 ee 3d ea d1 92 bd a6 3d d0 bc
       -0.005390143 0.11637266 -0.07168944 -0.025420021
000340 69 56 a4 ba 9b ae 24 bd 5c ec 84 bd 15 0c 2d be
       -0.0012537959 -0.04020558 -0.064903945 -0.1689914
000350 30 8b 12 be 08 03 8f bd e6 e1 49 3e b5 60 a2 bd
       -0.14310908 -0.06983 0.1971508 -0.07928602
000360 69 5d 0c be f8 a9 4a 3d 90 6f 66 3d 38 0d e5 3d
       -0.13707508 0.0494785 0.056258738 0.11184162
000370 fc e1 1e 3e 94 cc e8 3d 24 3f 4f be c0 4d 94 3c
       0.15515894 0.11367145 -0.2023893 0.01810348
000380 98 3b fd 3d 70 8d 9a bc 91 58 f6 bd 24 45 47 3e
       0.12364882 -0.01886627 -0.120286115 0.19459969
000390 66 5c 9c bd 29 03 ee bd 24 72 3c be 30 63 15 3c
       -0.07634811 -0.116216965 -0.18402916 0.009117886
0003a0 08 40 b9 3d 70 14 39 3d 4c 56 25 3d 41 85 1e be
       0.09045416 0.045185506 0.040365502 -0.1548052
0003b0 3c 34 43 be 80 91 6b 3b 2c 98 3e 3e 08 2e f1 3d
       -0.19062895 0.003594488 0.18612736 0.11776358
0003c0 9f 66 f3 bd f4 ad c3 bc a3 16 1a be 6e 7f c4 bd
       -0.11884808 -0.023886658 -0.15047698 -0.09594618
0003d0 ce 50 3e 3d ba d2 eb 3d fa f3 32 3e 9b 38 39 be
       0.04646378 0.11514802 0.17475882 -0.18088
0003e0 d1 72 0f 3e ac 2c 12 be 61 21 ad 3d 56 95 36 3e
       0.14008643 -0.14274853 0.08453632 0.17830405
0003f0 d9 3b b8 bc c2 ff 23 3e 4c c6 47 be ad f5 9a bd
       -0.022489475 0.16015533 -0.19509238 -0.0756639

conv_encoder.conv3.0.bias f4 [16]
000000 e6 1a 4c 3e ad ee 45 be d8 ad 5a 3e af 66 f9 3c
       0.19932136 -0.19329329 0.21355379 0.030444471
000010 33 d1 f4 bc d8 43 38 3e 6f 0f bd 3b 7b 2a 07 3e
       -0.02988491 0.1799463 0.005769662 0.13199799
000020 cc 5a 2a 3e da 79 35 be 84 6f 58 3d e5 39 0c 3d
       0.16636199 -0.17722264 0.052840725 0.0342349
000030 92 55 4b 3d e4 24 0e 3d 05 b4 d5 3d f4 0b cf bd
       0.049642153 0.03470315 0.104347266 -0.10109702

conv_encoder.conv4.0.weight f4 [32, 16, 3]
000000 b4 8e 50 3c c1 92 16 3e b9 61 e7 3d 80 af b1 bb
       0.012729336 0.1470442 0.11297936 -0.0054225326
000010 15 03 0b be 40 4a cf 3b 9f d8 40 bd a4 92 29 3e
       -0.13575394 0.00632599 -0.047081586 0.16559845
000020 95 73 33 bd 82 ef 9a 3b 1f b9 25 bc 33 ab 69 3d
       -0.0438114 0.0047282586 -0.010114937 0.057048034
000030 e0 15 0b 3e 17 92 d8 3b ec 33 ab 3d a6 e2 10 3e
       0.13582563 0.006609212 0.08359513 0.1414896
000040 f9 a1 23 3e 4b dd b5 bc 25 c3 95 bc f3 86 c4 3d
       0.15979756 -0.022200247 -0.018281529 0.09596052
000050 4e 5a 26 bb 5b 93 b0 3d c4 c6 3a 3a b0 86 b1 bd
       -0.0025383416 0.08621856 0.00071249553 -0.08668268
000060 3d 02 83 3d eb 3b da 3c df be 91 3d c2 d6 12 3e
       0.06396911 0.0266399 0.07116484 0.14339736
000070 72 d1 c9 3d fa 1c 0c 3e e4 d0 9b 3c ee fb d7 bd
       0.09854402 0.13682929 0.019020505 -0.10546099
000080 40 4a b6 bd eb 08 a5 bd 5c ec f3 bd 04 8a 89 bd
       -0.08900881 -0.080583416 -0.11910316 -0.067157775
000090 dc 86 01 be 66 e8 02 be 96 df a2 bd 37 96 06 be
       -0.12649101 -0.12783965 -0.07952802 -0.1314324
0000a0 62 3c 81 bd 02 80 9b 3d 0c bb 0f 3e 01 2c 9c bc
       -0.06310345 0.07592775 0.14036196 -0.019063951
0000b0 4c c3 b9 bc a0 d6 9d 3d a0 ac 84 bd 58 c5 8b bd
       -0.022676133 0.07706952 -0.06478238 -0.0682475
0000c0 44 21 b6 3d a3 c7 00 be 50 94 90 3c ba 90 02 3e
       0.08893064 -0.12576155 0.017648846 0.12750521
0000d0 98 c4 ca 3c 64 c6 20 3d 22 28 ac bd 80 81 02 bb
       0.024751946 0.0392517 -0.08406092 -0.0019913614
0000e0 60 07 02 3c 34 1a 11 3d 04 b6 65 3d d2 6d 00 3e
       0.007936329 0.03542538 0.056081787 0.12541893
0000f0 45 a2 e1 bd e0 c5 8d 3b b4 b1 93 bd 54 d7 e9 bd
       -0.110172786 0.004326567 -0.072116286 -0.11418024
000100 b0 5e 3d bc b9 19 02 be 24 4d ce 3d e0 f0 88 3c
       -0.01155822 -0.12705125 0.10073307 0.01671642
000110 5b 51 9f bd e2 79 9a 3d 35 e2 0b be a4 ad 64 bd
       -0.07779189 0.075427786 -0.1366051 -0.05582966
000120 34 5b e6 bc 63 30 fb bd 80 f8 bb bd ec fd c0 bc
       -0.02811966 -0.122650884 -0.09178257 -0.02355858
000130 18 4b e0 3d ae b9 0e 3e d0 14 bc 3d 08 83 b0 bd
       0.10951823 0.13938019 0.09183657 -0.08618742
000140 d4 63 c1 bd 4a fc 00 3e c0 1e 51 3d c0 4f 7b 3b
       -0.09442869 0.1259624 0.051054716 0.0038347095
000150 b8 04 a0 3c 50 93 ed bd 32 65 45 bd cc 46 0e 3e
       0.0195335 -0.11600363 -0.04819221 0.13894194
000160 84 cf 11 bd 40 42 ed bb da 72 f5 bd d4 5c a5 bd
       -0.035598293 -0.0072405636 -0.11984797 -0.08074346
000170 c0 27 41 bb e6 9d b7 bd 70 a1 92 bc d4 98 70 3d
       -0.0029473156 -0.089656636 -0.017899245 0.0587395
000180 84 93 10 be 74 98 2f 3d 90 74 c3 bd ff 44 90 bd
       -0.14118773 0.04287 -0.09543717 -0.0704441
000190 50 f8 62 3d 4c 0a eb 3d f6 94 21 bd 2e bb 72 bd
       0.05541259 0.11476573 -0.0394487 -0.05926054
0001a0 c7 a5 05 be 1d 6e 98 bd ac 6b 01 be 4e 4f 07 bd
       -0.1305152 -0.074428774 -0.1263873 -0.033034615
0001b0 20 47 f1 3c c7 78 0a be 32 0c 01 3e 76 75 b9 3d
       0.02945286 -0.13522635 0.12602308 0.09055607
0001c0 99 b0 10 be 9e 30 8d bd 3c d3 40 3d 2c f0 f2 bc
       -0.14129867 -0.068940386 0.04707645 -0.029655538
0001d0 f0 da 80 bc 34 78 85 bd 34 6f ed 3d e3 3d a5 bd
       -0.015729398 -0.065170676 0.11593476 -0.080684446
0001e0 10 23 f5 3d 80 95 18 3c d8 b0 ed 3c 0c 9c e6 3d
       0.11969578 0.009312987 0.02901499 0.11260232
0001f0 30 d2 c2 bc be 4c a8 bd 98 3c bf bc 04 c0 ef 3d
       -0.023781866 -0.082177624 -0.023344323 0.11706546
000200 7c 55 db bd 40 31 06 3d 1a 42 11 be 46 fc 9a 3d
       -0.10709664 0.032761812 -0.14185372 0.075676486
000210 88 6e 5a 3d 20 80 c8 3b e8 bd 7d 3d 00 3c 2a 39
       0.053328067 0.0061187893 0.061948687 0.00016234815
000220 ac 92 a3 3d 73 01 ea bd ec a3 ad bc 4a 22 83 3d
       0.0798696 -0.11426058 -0.021196328 0.064030245
000230 f2 2e 13 3e ea 93 96 3d 86 f4 d6 bd fc 58 e3 3d
       0.14373377 0.07352431 -0.10495858 0.11100957
000240 75 f3 8c bc e6 27 0b bd b1 c4 06 be f8 20 ba bc
       -0.017205933 -0.033973597 -0.1316097 -0.022720799
000250 92 16 d1 3d a8 e1 a4 3c 23 25 6b bd 84 5a 97 3d
       0.10209383 0.020127133 -0.057408463 0.07390311
000260 2b bf e3 bc 1a ba 18 3e 01 c1 ff bd 78 d7 4e bd
       -0.027801117 0.14914742 -0.124879844 -0.050498456
000270 a0 b6 0e be fe ce 4f bd 64 60 3a 3d 12 cb 1b 3e
       -0.13936853 -0.050734513 0.04550208 0.15214184
000280 4e 30 54 3d 21 26 1d 3e e7 5c da 3c e6 8c 94 3d
       0.05180388 0.15346576 0.026655627 0.07253437
000290 bf da f2 3d 59 c1 0c 3e 96 6b 74 bd ed 2a 02 3e
       0.11858129 0.13745631 -0.059672914 0.12711687
0002a0 a9 ec b1 3d c1 19 96 bd 12 a6 97 bd a9 ef f7 bd
       0.086877175 -0.07329131 -0.07404722 -0.121062584
0002b0 58 79 14 3d df 99 ef bd e4 08 97 3d 86 9a 75 3d
       0.036248535 -0.116992705 0.073747426 0.05996182
0002c0 c9 ec fc bd 2d d1 50 3d f7 c9 c6 bc 03 c1 78 3d
       -0.12349851 0.050980736 -0.024266226 0.060730945
0002d0 24 74 99 3d f3 c9 07 be 00 1e 14 3e 7c 82 fa 3d
       0.07492855 -0.13260631 0.14464569 0.12231919
0002e0 06 5f a0 3d 47 13 ec bd e9 66 59 bd 27 5d a4 bc
       0.07830624 -0.11527114 -0.05307666 -0.02006395
0002f0 b9 5c 88 bc 92 b2 a6 3d 52 cd 7e 3d b8 2b ea 3d
       -0.016645776 0.08139528 0.062207527 0.1143412
000300 ac 6b 5d bd ec f6 46 3d 34 59 52 3d db 1d f6 bd
       -0.054057762 0.048575327 0.051354602 -0.12017413
000310 dc 5e 0f be a6 62 99 bd c6 5a ca 3d 39 26 0b be
       -0.1400103 -0.07489519 0.09880595 -0.135888
000320 cd a6 00 be e0 98 a5 3d 90 7c 9f 3d 20 1a f3 3d
       -0.1256363 0.08085799 0.0778743 0.11870217
000330 93 29 df bd 1d 5a d8 bd fc a3 97 3d 66 88 00 3e
       -0.108966015 -0.10564063 0.074043244 0.12552032
000340 f6 de b0 3d 40 3a b9 3c c4 d8 42 3d 52 48 0c 3e
       0.086362764 0.022610784 0.047570005 0.13699463
000350 7c b9 be bd 18 35 86 bd c8 c3 ce 3d 76 43 ca bd
       -0.09312722 -0.065530956 0.10095936 -0.098761484
000360 d8 ff a2 bd ac c9 d7 3d ec 89 3a 3d 4c 00 3f 3d
       -0.079589546 0.10536513 0.04554169 0.046631142
000370 c8 93 7a bd 00 8b 02 bb de 45 07 3e 54 6d b1 bd
       -0.06117609 -0.0019919276 0.13210246 -0.08663431
000380 00 be 94 3a bc 96 8c 3d 55 12 cc bd a4 8a 0f 3e
       0.0011348128 0.06864688 -0.09964434 0.14017731
000390 c1 af 93 bd 54 f8 0d bd 84 f6 1f bd ee a1 c0 bd
       -0.07211257 -0.034660652 -0.039053455 -0.09405886
0003a0 55 08 11 be 2a ad a6 3d 7c 11 1d 3d 60 6e 0a be
       -0.14163335 0.08138497 0.038346753 -0.13518667
0003b0 1c 42 be bd 1a 15 12 3e dc fa 61 3d f0 37 6d 3d
       -0.09289953 0.14265862 0.05517088 0.057914674
0003c0 1b a9 0e bd e2 97 a9 bc 28 72 dc 3c 5c 3d d8 bc
       -0.03482924 -0.020702306 0.026909903 -0.026396446
0003d0 cc 8f ca bd 80 d3 42 3c ee 05 85 3d ae 02 cf 3c
       -0.09890708 0.011891246 0.064952716 0.025269832
0003e0 16 09 97 3d de 3a ef bc 12 2b b9 3d 2b c4 da 3d
       0.0737478 -0.029202875 0.09041418 0.10681947
0003f0 b0 b4 9b bd ac 4f 0a be 9c ba 9a 3d 85 ee b4 3d
       -0.07602823 -0.13506955 0.07555124 0.088345565

conv_encoder.conv4.0.bias f4 [32]
000000 41 20 d3 3d 50 e4 8c 3c 73 d8 93 bd b8 86 be 3d
       0.10308886 0.017198712 -0.07219019 0.09303039
000010 91 70 11 be 98 e6 28 3e b0 93 3e 3c 16 36 84 3d
       -0.14203097 0.16494215 0.011631891 0.064556286
000020 52 b3 88 3d 3c 2b 01 3d 13 b2 76 3d 07 d8 0c 3e
       0.06674828 0.031535372 0.06022842 0.13754283
000030 c4 b4 e6 bd 18 b4 19 3e 9c 0d b1 bc 0c 7c 09 bd
       -0.11264947 0.15010107 -0.021612935 -0.033565566
000040 04 cd bc 3c 3e 23 b3 3d c9 b1 a0 bd 5e 37 c7 bd
       0.023046978 0.08746956 -0.0784641 -0.09727357
000050 65 60 0b 3e dd d5 8a bd 7a 7b 9f 3c 4c 33 ae bc
       0.1361099 -0.067790724 0.019468058 -0.021264695
000060 9b 45 b6 3c 1f ba 16 3e bc cf 95 bd 74 fd 3f bd
       0.022249987 0.14719437 -0.07315013 -0.04687257
000070 df d6 d8 3d e0 7a 01 3c 60 22 82 bc c6 d3 01 be
       0.105878584 0.007902831 -0.015885532 -0.12678441

conv_encoder.output.0.weight f4 [64, 32]
000000 92 d0 0b 3e 20 5f db bb ac 5d 05 bd 9f c0 cc bd
       0.13653782 -0.0066946894 -0.032560036 -0.09997677
000010 5c e3 0e bd 05 8a 7a 3d 40 22 85 bb 8f 1b fb 3d
       -0.034884796 0.061166782 -0.004062921 0.12261116
000020 b0 37 27 bc 04 15 01 bd a5 33 d1 3d bb c2 ea bc
       -0.010206148 -0.031514183 0.102149285 -0.028657308
000030 50 85 10 bd 3b 6e 05 3d e9 c1 0e 3e 70 b1 34 3d
       -0.035283387 0.032575827 0.13941158 0.04411453
000040 aa 31 04 3e 77 af ce 3d 78 c4 4c 3d e0 c0 7b 3d
       0.1290957 0.10092061 0.049992055 0.061463237
000050 92 65 0a 3d 60 36 96 3c 3f 48 28 3e 35 1b 27 3e
       0.03378827 0.018336475 0.1643381 0.16318972
000060 2a 75 98 3d 15 73 09 bd 05 4d 22 3e c6 19 e3 bd
       0.07444222 -0.033557016 0.15849693 -0.110889
000070 2d 13 e5 3d 3e d1 bf 3d 66 7a e8 3d 30 8a 5e bc
       0.11185298 0.09366082 0.11351471 -0.013582751
000080 49 a1 15 be cd 20 01 3e ae 4d 9e bd 77 d2 10 3d
       -0.14612307 0.12610169 -0.0772966 0.035356965
000090 7a 1c cd 3d c7 22 41 be e0 35 40 3c 5d 41 a7 bd
       0.10015197 -0.18860923 0.011731595 -0.08166764
0000a0 bd 7a 00 3e 23 47 fd bd 42 4e e4 3d 4c 4b af 3d
       0.12546821 -0.12367084 0.11147739 0.085592836
0000b0 fa bd c7 3d 28 8f 12 3e 18 53 db 3c 90 12 24 be
       0.09753032 0.14312422 0.02677302 -0.16022706
0000c0 50 5f 07 3e 00 30 c6 3c c0 e8 65 3b e4 6f 2c be
       0.13219953 0.02419281 0.0035081357 -0.16839558
0000d0 85 8d 6e bd cf b8 af bd 22 25 40 3e 17 e4 00 3e
       -0.058240432 -0.08580171 0.18764165 0.1258701
0000e0 5f e2 10 3e 8b c9 bd 3d 17 6b e0 bd 3a 5d 23 be
       0.14148854 0.09266957 -0.10957926 -0.15953532
0000f0 6b 1d be bd 87 22 91 bd 49 e9 0c 3e 78 04 76 3d
       -0.09282955 -0.07086664 0.13760866 0.060062855
000100 7d d4 36 3e 80 7c 07 bc 95 5d 21 be eb 17 24 bc
       0.17854495 -0.008269429 -0.15758355 -0.010015468
000110 5a 70 fe 3d 76 99 20 3e 58 27 60 3d 30 73 08 bb
       0.12423773 0.1568354 0.05472502 -0.002082061
000120 4d f5 28 be 86 41 86 bd 6d e7 c9 3d ac cd d1 bc
       -0.16499825 -0.06555466 0.09858594 -0.025610767
000130 56 2d ad 3d a6 10 c1 3d f1 0d 8b bd 8a 82 dc 3d
       0.08455913 0.094270036 -0.067897685 0.10767086
000140 22 13 50 bd 7b 5d b2 3c be e7 89 bd b5 b5 2b be
       -0.050799496 0.02177309 -0.067336544 -0.16768534
000150 6d 8f 93 3d 70 3c 51 3d 00 ac 89 bd 6a 17 de 3d
       0.07205091 0.05108303 -0.067222595 0.1084431
000160 10 fc 0f be 76 51 00 be e1 9c df bd a4 b9 c6 bc
       -0.14060998 -0.12531075 -0.10918594 -0.024258442
000170 85 f6 c6 3c 24 ed 0b bd f2 3a a5 3d fe dd 1e be
       0.024287472 -0.0341617 0.080678836 -0.15514371
000180 10 ca 0d 3d 00 a1 48 3b 30 40 3f 3d 20 ad 42 3e
       0.03461653 0.0030613542 0.046692073 0.19011354
000190 ee d0 de 3d 52 38 99 bd 35 56 14 be 9e 67 60 bc
       0.10879694 -0.07481445 -0.1448601 -0.013696579
0001a0 bd 9b b5 bd a0 b4 8a 3d 07 b2 86 3b 8e 25 29 3e
       -0.08867595 0.06772733 0.004110578 0.16518232
0001b0 06 36 8e 3d 02 8c 3e bc 80 17 c7 3b 08 68 2d 3d
       0.06943898 -0.01163006 0.0060757995 0.04233554
0001c0 4e e4 e4 bc 5a e4 1b 3e 00 8a 0d be b6 75 b0 3d
       -0.027940895 0.15223828 -0.13822174 0.086162016
0001d0 f9 78 b9 bd 72 96 1e be 98 95 09 bd 5a 6c b0 3d
       -0.09056277 -0.15487078 -0.03358993 0.086144164
0001e0 f2 f5 03 3e 8a 57 88 3d 40 53 7a bc 9b 61 8e bc
       0.1288679 0.06657322 -0.015278637 -0.017380526
0001f0 ac 85 54 bd 20 f4 81 bc 10 1e 48 bc 6b 0a 1a 3e
       -0.051885292 -0.015863478 -0.012214199 0.15043037
000200 d4 d6 a1 3d 23 db 10 be 00 b3 3f 3a 4f b0 06 be
       0.07902303 -0.14146094 0.0007312745 -0.13153194
000210 a0 e1 e5 bc 58 e2 35 be 60 3b 3c 3d 3c a8 32 be
       -0.028061688 -0.17762125 0.045955062 -0.17446989
000220 c3 b4 32 3e 31 71 ec 3d 4f 5c 02 be 44 25 56 be
       0.17451768 0.11545027 -0.12730525 -0.20912653
000230 c0 03 e2 3b dc b5 b3 bd a4 90 54 3d af 11 f5 bd
       0.0068974197 -0.08774921 0.051895753 -0.119662635
000240 fb 7e a0 3d a5 84 26 be bb 12 bf bd 0a 53 be bd
       0.078367196 -0.16261537 -0.093297444 -0.09293182
000250 ab de 42 3d 60 a8 97 bb 4f 2d 22 be 7d c4 ce bd
       0.047575634 -0.004628226 -0.15837596 -0.10096071
000260 82 98 a0 bd 3a df 50 be 80 6e b9 3c 86 63 75 3c
       -0.078415886 -0.20397654 0.022635698 0.0149773415
000270 90 81 8b bd 48 12 90 bd 80 84 8c ba c5 c7 0f be
       -0.068118215 -0.07034737 -0.001072064 -0.1404105
000280 0b cd f7 bd a0 1b 84 bb 3f d0 20 3e 58 5d c3 bd
       -0.12099656 -0.0040316135 0.1570444 -0.09539288
000290 aa 72 b3 3d 6b a7 eb bd 70 bf 40 bd d6 75 5c be
       0.08762105 -0.11506542 -0.04705757 -0.21529326
0002a0 c9 f8 15 3e e3 71 2d 3e 9d 3b 52 bb 9e f1 91 3d
       0.14645685 0.16937976 -0.003207899 0.07126163
0002b0 31 10 14 3e 15 f0 34 3d f6 74 ba 3d 26 54 2c be
       0.14459302 0.044174273 0.0910434 -0.16828975
0002c0 43 3f 30 be bf 3c 27 be 20 7b 62 3d d7 93 1c be
       -0.17211632 -0.16331767 0.055293202 -0.15290771
0002d0 ad 3b 34 be 2e 7b af bd d5 41 3e be 00 c4 79 39
       -0.1760089 -0.085684165 -0.185798 0.00023819506
0002e0 fb fb d6 3c 35 ee 14 be e6 0c ed 3d f4 2d 46 bd
       0.0262432 -0.14543994 0.11574726 -0.048383668
0002f0 8e 29 ac bd 05 ea 09 3e 19 6a 1b 3e 08 22 a6 bc
       -0.084063634 0.13468178 0.15177192 -0.0202799
000300 f0 00 26 be a4 9f b5 bd 28 68 b8 3c 57 49 55 3d
       -0.16211295 -0.0886834 0.022510603 0.052071895
000310 32 3d b4 3d 53 85 09 be 30 21 2b be 70 72 54 be
       0.088007346 -0.13429765 -0.16711879 -0.2074678
000320 a6 5e 66 bd 5b 72 cc bc bf c8 99 bd 8a b0 40 be
       -0.056242608 -0.024956873 -0.075089924 -0.18817344
000330 20 9e 98 3c 83 0f 47 be 56 02 0b be b0 28 13 be
       0.018630087 -0.19439511 -0.1357511 -0.1437099
000340 70 cd 5c bd cd 88 01 3e 26 87 8d 3d d0 b4 ab bc
       -0.053906858 0.12649842 0.06910543 -0.020960242
000350 c7 68 79 bc c6 2a 90 3d f1 cc b4 bc 6c 01 12 be
       -0.015222735 0.070394084 -0.02207038 -0.14258355
000360 7f db f6 bd e8 ea 31 be 80 16 93 bb e0 a4 2e be
       -0.12053584 -0.17374766 -0.004488766 -0.17055082
000370 5f 6e a9 bd 2d 63 84 bd 9f a5 31 3e 0b 23 13 3e
       -0.08273005 -0.06464229 0.17348336 0.14368837
000380 1f b1 e2 3d 80 6e 22 3c c0 6f 6a bd 11 c5 60 3d
       0.110689394 0.009914041 -0.05723548 0.054875437
000390 ac 24 fa bd 57 1c 38 bd e4 74 11 bd e9 1f c3 bc
       -0.12214026 -0.044948902 -0.035511866 -0.023818927
0003a0 e2 7a 2b be 39 1a 9d 3d df 13 0f 3e 61 ca 82 bd
       -0.16746095 0.07671017 0.13972424 -0.06386257
0003b0 d4 2f 43 3d 6a 5c d9 3b 60 45 d3 bb 70 d3 28 3c
       0.047653034 0.006633331 -0.006447479 0.010304317
0003c0 29 b8 16 3e 1e 1b f4 3c b6 0d e5 bd ef 3a 82 bd
       0.14718689 0.029798087 -0.11184256 -0.06358897
0003d0 f7 34 e5 3d 9c f3 61 3d 2a 1c a3 3b 80 1f bf bc
       0.11191743 0.055163965 0.0049777227 -0.02333045
0003e0 5e 12 a7 bd a3 52 de bc 67 f8 be bd ab aa a7 3d
       -0.081578 -0.027139014 -0.09324723 0.08186849
0003f0 c0 90 96 3d 5b 9d 0a 3e 2c 94 23 bd e0 57 4f 3c
       0.073518276 0.13536589 -0.03993623 0.012655228

conv_encoder.output.0.bias f4 [64]
000000 69 36 09 be 1c aa 58 bd 23 cf 2b 3e c4 85 67 bc
       -0.13399662 -0.052896604 0.16778235 -0.014131013
000010 f0 37 28 be 46 18 bd bd 79 51 21 bd 28 29 6b bc
       -0.16427588 -0.092331454 -0.03938434 -0.014353074
000020 60 ec fe bd a2 18 18 be 9a f0 97 3d b0 39 21 3e
       -0.12447429 -0.14853147 0.07418938 0.15744662
000030 3f f3 20 3e 42 01 1c bd 8f 4a 53 3d a1 f1 20 be
       0.15717791 -0.038087137 0.051584776 -0.15717174
000040 e0 1b 06 3e ae e8 60 3e b3 1c 02 3e 2d 27 45 bd
       0.13096571 0.2196376 0.1270626 -0.048133064
000050 28 89 3b 3e d5 4e 57 be 4b 00 37 ba 4c 3a b2 bd
       0.1831404 -0.21026166 -0.00069809397 -0.087025255
000060 7d 3d 2f be 0d 42 12 be 15 51 0f be 66 a6 30 3c
       -0.171133 -0.14283009 -0.13995774 0.01078186
000070 12 9c 57 bd 1d 2a cb 3d 7f 49 e7 bc c8 14 09 3e
       -0.052639075 0.09920142 -0.028233288 0.13386834
000080 77 67 33 3b 1f d6 35 3e a4 66 40 3e af 36 48 be
       0.0027374902 0.17757462 0.18789154 -0.1955211
000090 98 05 28 be 6c 03 ab 3d e7 50 3f 3e 06 8e 2e be
       -0.16408384 0.08350262 0.18683206 -0.17046365
0000a0 3d ce 08 3c 91 d8 bd bd 3c 88 35 3e 61 63 3b 3e
       0.008349952 -0.092698224 0.1772775 0.18299629
0000b0 6d 47 e8 3d 6b df a7 3d 37 5f 20 3c 01 98 4f 3e
       0.113417484 0.081969105 0.009788326 0.20272829
0000c0 8b 47 01 be 63 e6 86 bc 1a eb 7e bd 13 0a 22 be
       -0.12624948 -0.016467279 -0.06223593 -0.15824156
0000d0 f6 bb a8 bd 83 54 14 3a e9 47 34 bc 76 9b f2 bd
       -0.08238976 0.0005658345 -0.011003473 -0.11846058
0000e0 59 52 7e bd 8a 50 15 3c 6b a4 15 be 8f 5a 0e 3e
       -0.06209025 0.00911344 -0.14613502 0.13901733
0000f0 a4 7d 27 be 3c 27 04 bd bf d3 07 be e1 0c 4a be
       -0.16356522 -0.03226398 -0.13264368 -0.19731475

conv_encoder_in_decoder.conv1.0.weight f4 [4, 1, 3]
000000 ac 50 6a 3a cf 32 28 3f 01 0b 19 3f da 00 a8 3e
       0.00089384126 0.6570253 0.59782416 0.3281315
000010 bd b6 11 3f 78 d8 84 be 8a 52 c0 3e 13 df f0 3e
       0.5691946 -0.25946403 0.37562972 0.47045192
000020 7b 64 01 bf 2f f5 0b bf 6d 57 22 3e 4c 28 07 be
       -0.50543946 -0.54670995 0.15853663 -0.13198966

conv_encoder_in_decoder.conv1.0.bias f4 [4]
000000 ad e8 d3 be e6 5b b0 be 55 6c d8 3e c2 fd 04 3e
       -0.41388455 -0.34445113 0.4227015 0.12987426

conv_encoder_in_decoder.conv2.0.weight f4 [8, 4, 3]
000000 00 7a 27 ba d0 e1 8e be 1e ae 81 3e 58 69 43 be
       -0.0006388724 -0.27906656 0.25328153 -0.19083154
000010 98 b7 03 3e 70 2d 0e bd 80 1e 1a 3c f0 24 11 3e
       0.12863004 -0.0347113 0.009406686 0.14174247
000020 b8 7d 9d bd 52 dc a5 bd 74 a6 6b 3e d6 83 62 be
       -0.076899946 -0.080986634 0.23012716 -0.22120604
000030 99 a5 85 3e 45 7f 9e 3d 7a 8e 78 3d fc 6c 87 3e
       0.26102903 0.077391185 0.06068275 0.26450336
000040 ba d0 8f 3e 74 58 47 be 0e 6e 99 3e ec a9 af bd
       0.28088933 -0.19467336 0.29966778 -0.08577332
000050 62 c6 9d 3e e3 bd e5 3d da e5 ea 3e 29 30 99 3e
       0.30815417 0.11217859 0.45878488 0.29919556
000060 d6 0a 0c 3e 36 a1 88 3e 45 30 17 3e 14 45 91 bd
       0.13676009 0.26685494 0.14764507 -0.07093254
000070 91 21 c0 3e 1a 45 85 3e 6a b1 83 3c e2 a5 a7 3e
       0.3752561 0.26029283 0.016075809 0.32743746
000080 9e 05 8a 3d e6 8f 38 3d 7e b8 ec bb 87 84 d3 3e
       0.06739353 0.045059107 -0.0072241416 0.41312048
000090 c1 9e 17 3d aa 80 aa 3e 3b 5b 27 be 8e 9d a9 3d
       0.037016634 0.33301288 -0.16343395 0.08282004
0000a0 8d 40 09 3d 81 fb 2b 3e d5 8c 85 3e 9f c9 32 3e
       0.033508826 0.1679516 0.2608401 0.17459725
0000b0 c5 b3 b4 bd 9c c3 b5 bd 17 3a 18 3d 4d 8d 28 3d
       -0.08823351 -0.088752 0.037164774 0.04115038
0000c0 90 57 bc 3e b6 0f 30 bd 99 27 67 3e 0c 94 9d 3e
       0.36785555 -0.042983733 0.22573699 0.30777013
0000d0 00 37 6d 3e 2a 47 36 be 8a a3 46 bd b2 da d0 bd
       0.23165512 -0.17800584 -0.048495807 -0.10197963
0000e0 b8 19 33 3e 10 f1 d1 3b e8 ab 8c bd e3 bb ba 3e
       0.1749028 0.0064069107 -0.06868726 0.3647147
0000f0 3b 6e 5c 3e 44 39 92 3e d5 92 7e 3d f7 5a 86 3e
       0.21526425 0.28559315 0.06215175 0.26241276
000100 14 0b 82 3e 5c b5 7b 3c cb fc cc 3d 99 65 35 be
       0.25399077 0.015363064 0.10009154 -0.17714538
000110 6b d6 51 3d 23 78 a5 3e a1 52 f4 bd e3 63 58 3d
       0.051229876 0.3231822 -0.11929823 0.052829634
000120 7d a2 ab 3e 9c e0 1d 3e 63 5c 09 3e 9d 7f d7 3d
       0.33522406 0.15417713 0.13414149 0.10522387
000130 c8 27 c5 3d a1 be 9e 3e 48 8c cd 3c 9d c0 40 bd
       0.09626728 0.31004813 0.025091305 -0.04705869
000140 7b 38 41 3e 50 da 7d bd f7 a4 37 3d d2 bd 7f 3e
       0.18869202 -0.061975777 0.044835057 0.24974754
000150 fc 79 b7 bd 28 e2 20 3e eb 71 7c be ec 70 aa bd
       -0.089588135 0.15711272 -0.24652831 -0.083223194
000160 a0 7b f8 bd 0a c4 88 3e 1c f1 eb 3d 55 82 5c be
       -0.121329546 0.26712066 0.11520597 -0.21534093
000170 7c 21 e5 3d c0 9a c8 bb 30 4d 87 3e 0c 22 23 3e
       0.11188027 -0.0061219633 0.26426077 0.15930957

conv_encoder_in_decoder.conv2.0.bias f4 [8]
000000 f9 a3 2c be 64 ae 88 3e 33 5b 3f bd 02 ed a3 bd
       -0.16859426 0.2669555 -0.046717834 -0.0800419
000010 2a 80 94 3c 22 a4 94 3e 99 37 ae 3d c3 9b 8e be
       0.01812752 0.29031473 0.08506698 -0.27853212

conv_encoder_in_decoder.conv3.0.weight f4 [16, 8, 3]
000000 6a 73 85 bd ba a3 42 3e 74 57 93 bd b2 1e c9 bd
       -0.06516154 0.19007769 -0.07194415 -0.09820308
000010 0e 9c 26 be 60 c4 e6 bd 95 90 e4 bd 78 ae 47 3d
       -0.16270468 -0.11267924 -0.11160389 0.04875037
000020 28 05 a7 3d 8a 7c 47 3e e0 2c 09 3e 80 aa 45 3b
       0.0815528 0.19481102 0.13396025 0.003016144
000030 5c 73 e1 3d 2c f3 ee 3d a5 49 34 be b0 f1 d2 3d
       0.11008331 0.11667475 -0.17606218 0.103000045
000040 64 fc 0e be 42 69 21 3e 91 d3 b5 bd a0 7a 2d 3d
       -0.13963467 0.15762809 -0.08878244 0.042353272
000050 80 57 0e bb 24 f3 c1 3d c8 0b 02 3d d4 9f 17 be
       -0.0021719635 0.094702035 0.031749517 -0.14807063
000060 c0 58 a9 3d 9c 9a f6 3d 1f b4 d9 bd 3e 98 07 be
       0.08268881 0.12041208 -0.106300585 -0.1324167
000070 be 54 0e be 14 67 cb bd 88 d2 d2 bc 60 0f 7a 3c
       -0.13899514 -0.0993177 -0.025735155 0.015262455
000080 00 b5 bc ba 30 23 5d bd 06 b6 01 3e c0 bd 30 3c
       -0.0014397204 -0.053988636 0.12667093 0.010787427
000090 5a bd f2 bd 98 45 5d bd b2 c8 f5 bd 2c 7b 93 bd
       -0.11852522 -0.054021448 -0.1200117 -0.072012275
0000a0 29 2c 45 be 38 17 12 3d 74 f5 21 be 94 af a1 3d
       -0.19255127 0.035666674 -0.15816289 0.07894817
0000b0 6c 30 0f 3e 82 7f 1b be bc 9d dc bd 26 28 25 be
       0.13983315 -0.15185359 -0.10772273 -0.16128597
0000c0 e8 20 5f 3d 9c c7 21 3d 09 c6 d7 bd 71 54 32 3e
       0.05447474 0.039497003 -0.10535819 0.17415024
0000d0 7c ab 14 3e dd 98 0e be 4c 8d e5 3d d4 87 9c 3c
       0.14518541 -0.139255 0.11208591 0.019107737
0000e0 fc 54 a9 3d 9b a7 2c 3e a4 93 9e 3d b5 4b f2 bd
       0.082681626 0.16860811 0.07743004 -0.11830846
0000f0 b0 60 8b 3e ba 28 38 bd e2 e4 74 3d 41 ff 17 3e
       0.27222204 -0.044960715 0.059788592 0.14843465
000100 e6 73 81 3e 01 16 87 3e 8e cf 6a 3d 7c ae 29 3e
       0.25283736 0.26383975 0.057326846 0.16570467
000110 b2 2b 9c bd e8 af 22 bd 38 09 82 bd 40 58 6d 3d
       -0.07625522 -0.03971854 -0.063494146 0.05794549
000120 d6 f3 08 be b0 a2 34 3d 30 fa d7 3d 21 54 54 3e
       -0.13374266 0.044100463 0.10545766 0.20735218
000130 ff 7b ac 3c fe 1d 72 3e 9f 96 a0 bd 82 b0 da 3c
       0.02105522 0.23644254 -0.07841229 0.026695494
000140 9e da 4e 3e 25 f8 d5 3d bb 9d 2d 3e 48 e6 c7 bd
       0.20200583 0.104477204 0.169547 -0.097607195
000150 85 58 81 3e 31 d0 66 bd 54 32 d8 bb 93 1a 4e 3d
       0.25262848 -0.05635089 -0.0065977965 0.050318312
000160 7d b8 02 be e0 e2 fc bd 3a f2 a8 bd e6 3e 84 3e
       -0.12765689 -0.123479605 -0.08249326 0.25829238
000170 b9 e3 1c 3e f6 62 85 bd 20 73 09 bc 3f 30 36 be
       0.15321244 -0.06513016 -0.008389264 -0.17791842
000180 7b 69 45 be b4 c4 11 be 8e 37 4a be 71 84 2f 3e
       -0.19278519 -0.14235193 -0.19747755 0.17140366
000190 2a 31 cb bc fd 76 16 bd 79 d5 6c bd 1e 1c 1b 3e
       -0.024803717 -0.03673457 -0.05782077 0.15147445
0001a0 b2 79 66 3d 2c 56 cc bd 10 b5 7a 3e b6 ea 23 3e
       0.0562684 -0.099773735 0.24483132 0.16007504
0001b0 d1 e1 f6 bc a0 f8 75 3e 9b 5f 8f 3d 79 98 62 3d
       -0.030136975 0.24020624 0.07000657 0.05532119
0001c0 b5 33 10 3e 4e 31 2d 3b db 14 8a 3e f2 79 55 3e
       0.14082225 0.0026427093 0.26969036 0.208473
0001d0 98 3b 75 bd 43 68 fe bd a2 19 4f be 1c d8 85 3d
       -0.059871286 -0.1242223 -0.20224622 0.0653536
0001e0 75 39 1d be e4 32 2f be 1a fa 05 be 22 77 1e be
       -0.1535395 -0.17109257 -0.13083687 -0.15475133
0001f0 47 43 e6 bd 64 e8 54 3e 7d 0d 71 3e 12 3f 98 3e
       -0.11243301 0.20791775 0.23540302 0.2973562
000200 12 03 34 39 3f 49 fd bc 9c 55 67 3d 6e ba 67 3b
       0.00017167281 -0.030918716 0.056478128 0.0035358923
000210 69 89 9e bc af 63 1e 3e cd 8a 96 bc 26 5f c7 3d
       -0.019352632 0.15467714 -0.018376732 0.09734945
000220 51 ca 7f 3e 2b 71 a9 3d be 67 81 3e 59 e9 6c bd
       0.24979521 0.08273538 0.25274462 -0.057839725
000230 2e b2 5b 3d 3a 11 01 be 10 86 b9 bc 29 4c a6 bd
       0.053636722 -0.12604228 -0.022646934 -0.08119995
000240 9f 5c ed bd 68 e7 49 be 32 02 9b bd 5b b8 86 3c
       -0.11589932 -0.1971718 -0.07568778 0.01644533
000250 eb af 3f bd 3d cf 4d be fd dd 11 3e b0 d7 0f 3e
       -0.046798628 -0.20098586 0.14244838 0.14047122
000260 6e 14 09 be 32 0d 22 3c 40 56 ff 3d 5e 6c 51 be
       -0.133867 0.009890841 0.12467623 -0.20451495
000270 72 d3 43 be ae b7 d1 3d 86 fc 6f bc 46 a8 5d 3d
       -0.19123629 0.10240112 -0.014647609 0.054115556
000280 43 1e c4 bd f2 55 d6 3c 11 f9 fe 3d e8 12 79 bd
       -0.095760845 0.026164029 0.124498494 -0.060809046
000290 02 28 9d bd 90 07 47 be 1c 04 01 bd 66 73 04 3e
       -0.076736465 -0.19436479 -0.03149806 0.12934646
0002a0 8f 8a 45 be b8 2b 81 bc 3e 5d 18 3e 14 a2 6e bd
       -0.19291137 -0.015767917 0.14879319 -0.05826004
0002b0 72 74 9a bd 28 31 7c bd d9 5f a9 bd 38 23 c8 3c
       -0.075417414 -0.061570317 -0.082702346 0.024430856
0002c0 91 3f 49 be 44 c0 9f 3d f8 28 53 bd 70 e6 d4 bc
       -0.19653155 0.07800344 -0.051552743 -0.025988787
0002d0 40 a4 61 bc fc 88 e9 3d 78 d6 01 be 29 35 3e be
       -0.01377207 0.11403081 -0.1267947 -0.18574966
0002e0 5c 32 17 be 5e 56 19 be 97 88 cb bd f8 16 25 3e
       -0.14765304 -0.14974353 -0.09938162 0.16122043
0002f0 16 b4 21 be 41 bd f5 bd 7c 65 2a be ce 02 d2 bd
       -0.15791354 -0.11998988 -0.16640276 -0.10254441
000300 40 c6 bb bb 06 e9 fe bd 80 66 0d 3b dd 16 05 3e
       -0.0057304204 -0.124467894 0.0021575987 0.12997003
000310 78 50 f3 3c 9a a4 06 3e dc 19 3a 3e e5 60 a4 3e
       0.029701456 0.13148728 0.18173927 0.32105175
000320 1c 86 d9 3d 4d 08 7b 3e 3e a6 90 3e 3e 1e f4 3d
       0.106212825 0.24514885 0.28251833 0.11919831
000330 cd b6 80 3e 33 02 0b bc ab 54 67 bc 93 cd 28 3e
       0.25139466 -0.008484411 -0.0141193075 0.1648467
000340 2b e7 18 3e 25 60 80 3e 48 cc ba 3d 55 3e 80 3d
       0.14931934 0.25073352 0.09120995 0.06261889
000350 de cc 75 3e 20 04 d8 3b 50 3c 44 3e f7 3b d5 bd
       0.24003932 0.0065922886 0.19163632 -0.10411828
000360 6c 29 89 bd f0 80 10 3c 70 f6 de 3d c6 02 13 be
       -0.06697354 0.008819804 0.10886848 -0.14356527
000370 85 30 43 bc 17 68 4a 3e 19 30 0d 3e 6e 3b 46 3e
       -0.011913423 0.1976627 0.13787879 0.19358608
000380 01 75 62 3d e7 24 b8 bd e3 64 f3 bd 09 0e 94 bd
       0.055287365 -0.089914136 -0.11884477 -0.072292395
000390 4a 07 1e bd f7 ec 6d 3e 94 39 3c 3e b3 1b a6 bd
       -0.03858117 0.23234926 0.1838134 -0.08110752
0003a0 bc de 80 3e 38 65 00 3e 52 38 23 3e c8 30 98 39
       0.25169933 0.12538612 0.15939453 0.00029028044
0003b0 3a 7e 7f 3e 4c 71 13 be d4 5c 18 3e 15 2c e3 bd
       0.24950495 -0.14398688 0.14879161 -0.11092392
0003c0 30 8f b1 3d ec 3b 97 bd c0 cb 07 3e 3b 4d 2f be
       0.08669889 -0.07384476 0.13261318 -0.17119305
0003d0 30 05 23 bd cc ac 61 bd e0 fa f9 bd 85 57 cd bd
       -0.03979987 -0.055096433 -0.12206054 -0.10026459
0003e0 a0 9c 6a bd 28 63 ad 3c aa 5d 14 3e 90 64 09 bd
       -0.057278275 0.021165445 0.14488855 -0.03354317
0003f0 76 e2 4c 3e 8c ef c6 bd 68 37 d7 bd 80 73 2e bc
       0.20008263 -0.09713659 -0.10508615 -0.0106476545

conv_encoder_in_decoder.conv3.0.bias f4 [16]
000000 90 99 a3 3d 60 37 dc 3d 1c f8 03 bd a8 b5 3d 3e
       0.07988274 0.107527494 -0.032219037 0.18526328
000010 d8 29 4c 3e 57 25 23 3e 5b 21 4b be 26 0f 98 bd
       0.19937837 0.15932213 -0.19836943 -0.07424764
000020 02 d8 e1 3c 66 14 2d 3e a0 40 0c bd bc a8 2e 3d
       0.02756882 0.16902313 -0.03424132 0.042641386
000030 c6 8f de 3d b6 e1 c5 bd 96 a0 0d be 5b fd 59 3e
       0.10867266 -0.096621916 -0.1383079 0.21288054

conv_encoder_in_decoder.conv4.0.weight f4 [32, 16, 3]
000000 40 12 53 bb 52 2a d1 3d c6 1e 10 be b4 a9 61 bd
       -0.0032206923 0.1021315 -0.14074239 -0.055093482
000010 c0 6b cf 3d e0 f2 64 bc 1c 22 47 3d 02 a2 f7 bd
       0.101279736 -0.013973922 0.048616514 -0.120914474
000020 fc db 0f 3e ec 89 93 bd 00 27 ef bb 7e 9e c1 bd
       0.14048761 -0.07204041 -0.0072983503 -0.09454058
000030 c0 26 83 bd bd 6a fd bd 77 5e 01 be e0 8f f1 bc
       -0.06403875 -0.12373874 -0.12633692 -0.02948755
000040 33 63 82 bd 9c 5c da 3d 00 11 37 ba 30 dc e5 3d
       -0.06366577 0.10662195 -0.0006983429 0.11223638
000050 b8 0a c6 bc d8 da fa 3c f8 f2 0d 3e e9 bc e4 bd
       -0.024175033 0.030621931 0.13862216 -0.11168844
000060 92 0e 80 bd 38 b6 fc 3d 50 8b 07 bd 5e 38 1f bd
       -0.06252779 0.12339443 -0.033091843 -0.038872115
000070 50 c9 3d 3c 3c b1 9e bd c0 12 2a 3c 00 b9 75 bd
       0.011583641 -0.077486485 0.010380447 -0.059990883
000080 dc 8d 3b 3d 54 ff fa bc 3a 63 46 bd 18 b6 5e bd
       0.045789585 -0.030639328 -0.048434474 -0.054372877
000090 b8 99 19 3d 76 58 94 3d 4e 20 07 be 9e 29 ce bd
       0.037500113 0.07243435 -0.13195917 -0.100665316
0000a0 0e d9 0d be 8c fc 89 3d 08 b2 dd 3d 10 02 0e be
       -0.13852331 0.067376226 0.108249724 -0.13867974
0000b0 c0 b0 19 3d 50 cc ef 3c 60 a1 9e bd 70 76 ff 3c
       0.037522078 0.029272228 -0.077456236 0.031184405
0000c0 d4 ee e3 3d 60 f9 10 3e 1c a7 7f 3d 5c 74 ea bc
       0.11129537 0.14157629 0.062415227 -0.028619938
0000d0 4e 31 a8 bd 8a 2a 61 bd 00 e2 a4 3c 80 c6 ab 3d
       -0.08212529 -0.05497221 0.020127296 0.0838747
0000e0 d4 0f 40 3e 48 1f d3 bd 90 59 89 3d 0e 26 db bc
       0.18756038 -0.10308701 0.06706536 -0.026751544
0000f0 72 41 c0 3c 09 00 44 3e 60 16 80 3d 23 6c 4b bb
       0.023468707 0.19140638 0.06254268 -0.0031039796
000100 d2 8f e8 3b df 57 9a bd ea e8 05 be c8 cc 80 3d
       0.007097223 -0.07536291 -0.13077131 0.06289059
000110 0f e3 a5 bd f0 d3 a7 3d 48 9d 27 bd cc 4a 55 3d
       -0.080999486 0.08194721 -0.04092148 0.052073285
000120 66 07 0a 3e c5 b6 d5 3d d3 42 ec 3d ec d0 3e 3e
       0.13479385 0.10435251 0.11536183 0.18634385
000130 cc 4f 38 3c 67 b4 1b 3e 2c 9c f8 bd 66 57 07 3e
       0.011249494 0.15205537 -0.121391624 0.13216934
000140 9a ec 41 bd 80 03 b2 bb 72 d4 a5 3d 10 9e 2d 3c
       -0.04734478 -0.005432546 0.08097161 0.010596767
000150 f9 af 1c 3e d7 1e 12 bc 5d d5 06 bd 2c 4d 33 3e
       0.15301503 -0.008918486 -0.032918323 0.17509907
000160 e1 1f 81 bc 19 2e 18 3e 1e c6 38 3e 11 fe 48 3e
       -0.015762271 0.14861335 0.18044326 0.19628169
000170 00 ba ce 3c 81 ef 9c 3c 27 80 5b bd 1e 6a 00 bc
       0.025235176 0.019157173 -0.053589012 -0.0078378
000180 f4 bb f4 bc f0 4d c3 bd 96 89 aa 3d d0 e4 9a 3d
       -0.02987478 -0.0953635 0.08327024 0.07563174
000190 74 2e 29 bd 18 f5 b9 bc 2f a6 0c 3e 12 f1 82 3d
       -0.041304067 -0.022699878 0.13735269 0.06393637
0001a0 63 76 3a 3e ea 35 0e 3e 40 00 9e bc 4e d9 0f be
       0.18209223 0.13887754 -0.019287229 -0.14047739
0001b0 0b 0a ff 3d 6b b2 3e bd 10 94 33 3e f6 56 bb bd
       0.124530874 -0.04655687 0.1753695 -0.09147446
0001c0 6c 19 81 3d a6 fd bf 3d 96 a7 0b bd 04 84 e6 3d
       0.06303677 0.093745515 -0.03409537 0.11255649
0001d0 06 a3 fc bd 2e ab 75 bd 94 20 ba bc d0 65 e2 3d
       -0.12335782 -0.059977703 -0.022720613 0.110545754
0001e0 35 6b 9b 3d 67 e4 20 3e 51 21 e1 3d 73 ea 32 3e
       0.075888075 0.15712129 0.10992683 0.17472248
0001f0 d4 ac f6 3a 3c f5 98 bc 1c 5e a2 bc c4 92 68 3d
       0.0018819817 -0.018671624 -0.019820265 0.05678059
000200 2c 5f 2d bd 98 23 59 3d 3c 17 22 3d dc 02 0b 3d
       -0.04232709 0.05301246 0.03957294 0.033938274
000210 9e cf fb 3d 81 d4 65 3d 97 2a f8 3d ac 57 85 bc
       0.12295459 0.056110863 0.12117498 -0.016277157
000220 80 8d a3 bd 7e 23 ee 3d bb 3a b7 3d 74 de 54 3e
       -0.07985973 0.11627863 0.08946749 0.20787984
000230 e4 c2 fc 3d 6d 63 41 3b 01 cb 44 bd 67 92 af bd
       0.1234186 0.0029508725 -0.048045162 -0.08572846
000240 e8 4c ed 3c 84 27 f1 3d 00 d7 37 bc 6e df 40 bd
       0.028967336 0.11775115 -0.011220694 -0.04708808
000250 72 e2 93 3d 62 1d 8f bd 80 9d 50 3d 4f e0 ef bd
       0.072209254 -0.06988026 0.050931454 -0.11712705
000260 c2 f2 05 be 5a 74 ac bd cc 73 ca bc b4 5a 47 3d
       -0.13080886 -0.0842063 -0.02471342 0.048670486
000270 2a 91 95 3d 1d 1a bb bd 98 d7 f2 bc 00 aa 42 3d
       0.073030785 -0.0913584 -0.029643819 0.047525406
000280 36 61 02 bd 80 26 0e 3b 16 60 bf 3d aa 8d 2a bd
       -0.03183099 0.0021690428 0.09344499 -0.041639008
000290 e0 66 98 3d 90 30 f0 3d 4c 16 45 3d 04 1a d2 bc
       0.07441497 0.117280126 0.048116967 -0.02564717
0002a0 a4 2b bb bd d4 60 c3 bd 48 be e5 bc 04 c3 38 3d
       -0.09139183 -0.09539953 -0.028044835 0.045107856
0002b0 b2 ab a1 3d 00 29 e4 bb ec 35 ee 3d 20 29 6a bd
       0.078940764 -0.0069628954 0.116313785 -0.057168126
0002c0 c8 c9 eb 3c 1b 57 97 bd f8 dc 1e 3d d4 49 fc 3d
       0.02878274 -0.07389661 0.03878495 0.12318769
0002d0 8c 28 4f 3d 30 73 1e 3c c4 94 59 bd 5f 87 f2 bd
       0.050575778 0.0096710175 -0.05312039 -0.11842226
0002e0 c4 48 ca bd e8 90 fd bd 40 19 d2 3d 18 a3 76 bd
       -0.0987716 -0.12381154 0.10258722 -0.060214132
0002f0 64 eb b0 bc 2f 72 04 be 16 da 24 bd 0c 6e fb 3d
       -0.021596618 -0.12934183 -0.040247045 0.12276849
000300 08 63 d9 3c c8 22 d3 bc 30 12 9a 3d 74 e5 e3 3d
       0.02653648 -0.02577342 0.07523 0.11127749
000310 5c 07 e6 3d 44 b7 da bd 80 c9 29 3c 99 bd f2 bd
       0.112318724 -0.106794864 0.010362983 -0.11852569
000320 8a cf cb bd 38 fd e2 3d 4a 83 eb bd 0a f8 90 bd
       -0.09951694 0.11083454 -0.11499651 -0.0707856
000330 3a c3 8d 3d 9c ce 0f 3e b1 93 0f be 3a bf be bd
       0.06922002 0.14043659 -0.14021184 -0.09313817
000340 f8 d4 67 bd d0 fd e4 3d e4 44 ac 3d 42 49 b8 3d
       -0.056599587 0.111812234 0.08411577 0.08998348
000350 3c 69 bd 3d 0c f5 13 bd 88 f5 d9 3d a0 e7 84 bb
       0.092485875 -0.036122367 0.106425345 -0.004055932
000360 20 2f 5e 3c 90 c8 1c bd dc cb 7a 3d 5e 01 84 3d
       0.01356104 -0.03827721 0.06122957 0.06445573
000370 30 ac 7a bc 98 1d 02 3e 48 1d 19 bd e0 a3 15 3d
       -0.015299842 0.12706602 -0.03738144 0.036533237
000380 08 3e 06 3e 32 8c a6 3d 6a 48 57 bd 19 e7 85 bd
       0.131096 0.08132209 -0.052559294 -0.06538219
000390 48 33 e4 3c 80 61 8f ba 10 6f 26 3c c6 6a be 3d
       0.027856484 -0.0010939091 0.010158315 0.09297709
0003a0 f4 a7 4e 3d 8d c9 a5 bd 92 59 f1 bd fc bb 0b 3e
       0.05045314 -0.080950834 -0.11784662 0.13645929
0003b0 00 2c 82 bc fa e9 68 bd ee 1b d9 bd 4a ee 0d 3e
       -0.015890121 -0.056863762 -0.1060103 0.13860431
0003c0 c2 29 95 3d ba 64 bb bd 80 4d ff bd 04 66 00 3e
       0.07283355 -0.091500714 -0.12465954 0.12538916
0003d0 08 8a 7e 3d 44 af ad bc c4 c7 c7 bd a9 62 3f 3e
       0.062143356 -0.021201737 -0.09754899 0.1868998
0003e0 bc 2d 4d bc 64 86 d2 3d 8c ff 9e bd a7 ca d7 bd
       -0.012523111 0.10279539 -0.077635854 -0.105367
0003f0 b2 a3 fa bd cb df 42 3e 38 58 49 3e 49 38 c6 bd
       -0.12238254 0.19030683 0.19662559 -0.09678704

conv_encoder_in_decoder.conv4.0.bias f4 [32]
000000 cc ad 86 bd ad 1d 9f 3d 7e e2 ca 3d c0 4f 93 bb
       -0.06576118 0.07769332 0.09906481 -0.004495591
000010 85 91 be bd ed 9f e8 3d a3 70 0a 3e cc 9f f4 3d
       -0.093050994 0.113586284 0.1351953 0.11944541
000020 c0 34 2b bb 3c ff f8 3c 39 64 a2 bc 7e c9 0c bd
       -0.002612397 0.030395143 -0.01982318 -0.034371845
000030 0e 08 11 be 03 29 b6 bb 32 6c 7b 3d 69 88 cf 3d
       -0.14163229 -0.005559088 0.06138248 0.1013344
000040 2a 32 4f 3d 7b da 96 3d 5d 24 e5 3d d8 96 e4 bc
       0.05058495 0.073658906 0.11188576 -0.02790396
000050 c5 43 ca 3d c0 af 46 bb b6 60 51 bd 35 b8 48 bd
       0.09876207 -0.0030317158 -0.05111762 -0.0490038
000060 b7 8a d9 bd 56 ac e3 bd 30 6f 07 3d 02 cd 10 3e
       -0.10622161 -0.11116855 0.03306502 0.14140704
000070 c0 16 a8 3c d0 ce 9f 3c 6c c9 5d bd 0c 0d 69 bd
       0.02051866 0.019507796 -0.05414717 -0.056897208
