BoTorch/heat/lig_seed42_final.pt (torch, 468690 bytes, 41 tensors)

conv_encoder.conv1.0.weight f4 [4, 2, 3]
0.3181124 0.34159255 -0.09731307 0.38276753 -0.08455727 0.08381764 -0.19689026 0.24187654
0.36021695 -0.29820272 0.35611096 0.07709123 0.30260503 0.055559576 0.19608669 -0.058206424
0.31391382 0.058906697 -0.1905866 0.10406178 -0.18809494 -0.047876447 -0.16581345 0.27082008
00000000: a1df a23e 38e5 ae3e 134c c7bd 1bfa c33e
00000010: 5d2c adbd 95a8 ab3d 9a9d 49be 7cae 773e
00000020: 5b6e b83e 07ae 98be 2d54 b63e 02e2 9d3d
00000030: 0cef 9a3e 7092 633d f3ca 483e dc69 6ebd
00000040: 50b9 a03e 2648 713d 2229 43be 581e d53d
00000050: f69b 40be 181a 44bd 00cb 29be eea8 8a3e

conv_encoder.conv1.0.bias f4 [4]
-0.31264177 -0.18869133 -0.115223005 -0.24546847
00000000: 9512 a0be 4d38 41be 0afa ebbd 165c 7bbe

conv_encoder.conv2.0.weight f4 [8, 4, 3]
0.027246058 -0.2851184 0.24879539 -0.24522035 0.21099634 0.036556553 -0.09727996 0.16681878
0.03327569 0.23323894 0.031557888 -0.09104039 0.075071245 -0.07975668 0.12150719 0.2566179
0.16724859 -0.12522784 0.16171408 0.049112976 0.14572749 -0.17594895 -0.28576195 -0.11153267
-0.2136948 0.2437072 0.08792516 0.12625976 0.09601434 -0.00073964096 0.23304985 -0.19901223
0.022990238 -0.19703238 0.08901355 -0.0994146 0.0820974 -0.07151105 0.22472148 -0.18412358
-0.18720774 -0.188483 0.24846618 0.08192261 0.2612854 -0.23823673 -0.28632995 -0.22584897
-0.17698194 0.13865729 0.12048693 0.26307118 -0.13292955 -0.18305528 0.17560485 -0.093065836
0.19214086 -0.0685028 0.16513544 -0.22429134 -0.1485319 0.08410967 0.05658958 -0.07732054
0.16777283 0.19204536 -0.21280803 -0.15823081 0.26006842 -0.09740837 -0.10234006 -0.2793205
-0.16817276 0.06948973 -0.04330963 -0.21318142 0.0007029161 -0.19747242 -0.24617708 -0.15933195
-0.25253135 -0.18381044 0.28856224 0.054523498 0.085370645 -0.27391526 -0.17890362 -0.100415565
0.061594002 -0.24554442 -0.12481326 -0.17326847 0.00092429854 -0.10741694 -0.020003974 -0.19561484
00000000: 2033 df3c 0afb 91be 38c4 7e3e 0b1b 7bbe
00000010: 6d0f 583e 53bc 153d b73a c7bd 8bd2 2a3e
00000020: 174c 083d 30d6 6e3e d842 013d 6273 babd
00000030: f4be 993d 7857 a3bd c3d8 f83d 6c63 833e
00000040: 3743 2b3e ba3b 00be 6098 253e b02a 493d
00000050: 9639 153e f62b 34be 644f 92be 3e6b e4bd
00000060: cfd2 5abe 618e 793e 1b12 b43d 3d4a 013e
00000070: 2ba3 c43d 77e4 41ba 9fa4 6e3e ddc9 4bbe
00000080: 0656 bc3c dbc2 49be bc4c b63d e299 cbbd
00000090: af22 a83d 6374 92bd 631d 663e e48a 3cbe
000000a0: 63b3 3fbe b001 41be eb6d 7e3e 0bc7 a73d
000000b0: 33c7 853e 54f4 73be d799 92be f444 67be
000000c0: c13a 35be 2dfc 0d3e dac1 f63d 44b1 863e
000000d0: af1e 08be d872 3bbe c2d1 333e 4d99 bebd
000000e0: 93c0 443e 324b 8cbd 4419 293e a1ac 65be
000000f0: bf18 18be b141 ac3d 7aca 673d 3b5a 9ebd
00000100: a4cc 2b3e 8aa7 443e 59ea 59be 4207 22be
00000110: b027 853e 0a7e c7bd aa97 d1bd 1903 8fbe
00000120: 7b35 2cbe a250 8e3d 7065 31bd 3b4c 5abe
00000130: e743 383a 3636 4abe d815 7cbe ea27 23be
00000140: ca4b 81be ce38 3cbe 6ebe 933e 0854 5f3d
00000150: ced6 ae3d 9f3e 8cbe 8332 37be ada6 cdbd
00000160: fe49 7c3d ff6f 7bbe 189e ffbd 4a6d 31be
00000170: a04c 723a 6afd dbbd 60df a3bc 424f 48be

conv_encoder.conv2.0.bias f4 [8]
-0.20958215 -0.17590065 -0.09206735 -0.23634785 0.2598405 -0.06159868 0.24633877 0.09493085
00000000: b49c 56be 4d1f 34be cf8d bcbd 2c05 72be
00000010: d009 853e e64e 7cbd 3b40 7c3e 1b6b c23d

conv_encoder.conv3.0.weight f4 [16, 8, 3]
-0.17285171 0.13935545 -0.0561637 -0.07495853 -0.17192341 -0.20754321 0.059521228 -0.04694292
0.075462684 -0.16273183 0.14936525 -0.15301621 -0.040700953 0.031141466 0.097524226 0.16395661
0.18245324 -0.1657777 0.050615046 -0.079660766 -0.008218737 -0.15043205 0.18592826 -0.13707584
0.10909441 0.07173732 0.06633136 -0.110358946 0.18553895 0.04485637 0.026258543 -0.17988539
0.08568898 -0.030622825 -0.093514234 0.17533174 0.045509234 -0.11293708 -0.10331518 -0.009748101
0.11397502 -0.05216062 -0.11646812 -0.069900855 -0.15249601 0.0727973 0.15800029 -0.19217071
0.047407985 0.104002304 0.03701371 -0.06368887 0.11526302 0.13017105 0.0842642 -0.028474303
-0.042021926 0.02702788 -0.030603265 -0.046663158 0.16102882 0.20731612 0.009279994 -0.04266029
0.0021102927 -0.012451234 0.043166682 0.05416891 -0.16539353 -0.082098186 0.17189896 0.09669478
-0.010152638 -0.12342771 -0.124884196 -0.17291947 -0.055289667 0.07037314 0.13663258 0.10292462
-0.18080866 -0.11452965 -0.022068141 0.19860514 0.043000735 -0.03815164 0.095142566 -0.0695768
-0.1340369 0.14441639 -0.08109063 -0.030608576 -0.20491083 0.14690296 0.15465152 0.090223715
-0.14233051 -0.20145828 -0.16578534 0.14721529 0.0930011 0.16677125 0.10193465 0.04666248
-0.0069986507 -0.16023766 -0.17988792 -0.19592728 0.07856053 -0.10521857 -0.046080653 -0.112909004
-0.037196234 -0.1436697 -0.13337792 0.06771019 -0.060664967 0.12601465 -0.06548482 -0.14973879
-0.03601545 -0.08866969 -0.062450066 -0.18320732 0.124837175 -0.12479995 0.11398096 0.10423325
0.16314359 -0.14755224 0.15726195 -0.08142862 0.10564827 0.22375919 0.0005156934 0.009124902
-0.03425319 -0.1612793 0.115306266 -0.207566 0.14186132 0.16563946 0.1930415 -0.035669647
-0.16771697 0.04589328 0.11276376 -0.18850109 -0.03218803 -0.118781686 -0.014684068 -0.07895421
-0.09627285 -0.06798602 -0.17066437 0.1611765 0.18024714 -0.023555188 -0.015947616 -0.07966848
-0.18803935 -0.20319748 0.076619714 -0.10968131 -0.1292745 -0.015521023 -0.067975625 -0.06074945
0.006558746 -0.04087014 -0.07028249 -0.1101823 -0.17673016 0.1654506 -0.09390726 0.042986877
-0.0749146 0.009238722 0.1792295 0.08764617 -0.19581406 0.06429023 0.18163003 0.041812904
0.13773796 0.20016558 -0.023379516 0.049298238 -0.15044945 -0.032900687 0.15117103 0.101801984
-0.12916753 -0.1557783 -0.13949102 -0.20408161 -0.16414277 -0.051758587 0.13487953 0.02812129
-0.15436263 -0.16543971 0.09430704 -0.15483567 -0.02344425 0.099372074 -0.09074398 -0.026661512
-0.008774163 -0.04092841 -0.08844244 -0.17862765 -0.1550624 -0.09524355 0.1971508 -0.08928728
-0.13707508 0.0494785 0.056258738 0.11184162 0.15515894 0.11367145 -0.2023893 0.01810348
0.12364882 -0.01886627 -0.120286115 0.19459969 -0.07634811 -0.116216965 -0.18402916 0.009117886
0.09045416 0.045185506 0.040365502 -0.1548052 -0.19062895 0.003594488 0.18612736 0.11776358
-0.11884808 -0.024736037 -0.15047698 -0.09935571 0.04090957 0.112996615 0.16897035 -0.18484628
0.13775831 -0.14635517 0.07892497 0.17474912 -0.009225362 0.17353278 -0.18291472 -0.077602185
00000000: 0a00 31be 32b3 0e3e e80b 66bd dc83 99bd
00000010: b10c 30be 3586 54be 88cc 733d 3847 40bd
00000020: 2e8c 9a3d 2ca3 26be 34f3 183e 48b0 1cbe
00000030: 0bb6 26bd 631c ff3c c8ba c73d 3ee4 273e
00000040: 06d5 3a3e a1c1 29be b951 4f3d 2f25 a3bd
00000050: e2a7 06bc dc0a 1abe fa63 3e3e 9c5d 0cbe
00000060: e46c df3d 04eb 923d bcd8 873d df03 e2bd
00000070: ecfd 3d3e 50bb 373d 281c d73c e033 38be
00000080: b47d af3d b8dc fabc 6484 bfbd 2a8a 333e
00000090: e467 3a3d 8e4b e7bd e996 d3bd 80b6 1fbc
000000a0: bc6b e93d 60a6 55bd d686 eebd 2e28 8fbd
000000b0: ea27 1cbe c016 953d d4ca 213e 66c8 44be
000000c0: e02e 423d 29ff d43d b09b 173d 4f6f 82bd
000000d0: 050f ec3d 8f4b 053e b592 ac3d f142 e9bc
000000e0: 2f1f 2cbd 9369 dd3c b3b3 fabc de21 3fbd
000000f0: bde4 243e ad4a 543e 1e0b 183c 8ebc 2ebd
00000100: d64c 0a3b 4300 4cbc 8ccf 303d 38e0 5d3d
00000110: ec5c 29be 1823 a8bd 4806 303e ea07 c63d
00000120: 4057 26bc abc7 fcbd 49c3 ffbd cd11 31be
00000130: 6b77 62bd cb1f 903d 69e9 0b3e 25ca d23d
00000140: e825 39be 858e eabd 3fc8 b4bc 255f 4b3e
00000150: 8a21 303d e544 1cbd 1bda c23d 487e 8ebd
00000160: f840 09be e4e1 133e d812 a6bd d6be fabc
00000170: 25d4 51be bb6d 163e f85c 1e3e 36c7 b83d
00000180: 17bf 11be 144b 4ebe a2c3 29be 9bbf 163e
00000190: 5c77 be3d 15c6 2a3e 1dc3 d03d 2821 3f3d
000001a0: f054 e5bb 5715 24be 8a34 38be 29a1 48be
000001b0: 58e4 a03d d57c d7bd 11bf 3cbd d63c e7bd
000001c0: 145b 18bd 261e 13be 3994 08be a4ab 8a3d
000001d0: d47b 78bd fc09 013e e81c 86bd 2055 19be
000001e0: f084 13bd 7498 b5bd a4cb 7fbd b39a 3bbe
000001f0: a2aa ff3d 1e97 ffbd d96e e93d 3e78 d53d
00000200: 1d0f 273e ef17 17be 4709 213e 0cc4 a6bd
00000210: 1f5e d83d 2121 653e 992f 073a 9d80 153c
00000220: 134d 0cbd 6726 25be b125 ec3d 2e8c 54be
00000230: 1844 113e 649d 293e acac 453e 561a 12bd
00000240: ffbd 2bbe 98fa 3b3d b0f0 e63d 6e06 41be
00000250: 99d7 03bd d043 f3bd 7295 70bc bfb2 a1bd
00000260: b32a c5bd 413c 8bbd a4c2 2ebe 740b 253e
00000270: b592 383e cff6 c0bc 93a4 82bc 3a29 a3bd
00000280: 638d 40be 0013 50be ccea 9c3d 98a0 e0bd
00000290: 8960 04be e44b 7ebc ce36 8bbd 6ad4 78bd
000002a0: c0ea d63b 7367 27bd 44f0 8fbd 42a7 e1bd
000002b0: c0f8 34be e26b 293e 7352 c0bd 0213 303d
000002c0: d36c 99bd 025e 173c f087 373e d67f b33d
000002d0: 7b83 48be 99aa 833d 39fd 393e 0244 2b3d
000002e0: 2e0b 0d3e 35f8 4c3e 6686 bfbc f3ec 493d
000002f0: 6c0f 1abe dfc2 06bd 94cc 1a3e 8f7d d03d
00000300: 7e44 04be 5984 1fbe bcd6 0ebe c5fa 50be
00000310: 0b15 28be d000 54bd dc1d 0a3e 9f5e e63c
00000320: 3d11 1ebe 0769 29be 0d24 c13d 3e8d 1ebe
00000330: 280e c0bc 9683 cb3d fbd7 b9bd 3e69 dabc
00000340: 82c1 0fbc 8ca4 27bd 4f21 b5bd 2bea 36be
00000350: aec8 1ebe 0d0f c3bd e6e1 493e 40dc b6bd
00000360: 695d 0cbe f8a9 4a3d 906f 663d 380d e53d
00000370: fce1 1e3e 94cc e83d 243f 4fbe c04d 943c
00000380: 983b fd3d 708d 9abc 9158 f6bd 2445 473e
00000390: 665c 9cbd 2903 eebd 2472 3cbe 3063 153c
000003a0: 0840 b93d 7014 393d 4c56 253d 4185 1ebe
000003b0: 3c34 43be 8091 6b3b 2c98 3e3e 082e f13d
000003c0: 9f66 f3bd 3ba3 cabc a316 1abe 027b cbbd
000003d0: cb90 273d c56a e73d 9006 2d3e 5848 3dbe
000003e0: 8410 0d3e 21de 15be 6aa3 a13d 6ff1 323e
000003f0: f925 17bc 94b2 313e ff4d 3bbe e5ed 9ebd

conv_encoder.conv3.0.bias f4 [16]
0.16282007 -0.19329329 0.18551272 0.006281085 -0.028739607 0.15545532 -0.0115660755 0.11109799
0.15131657 -0.17722264 0.06600733 0.034678772 0.045727786 0.03891616 0.07226541 -0.0948287
00000000: 4eba 263e adee 45be 0cf7 3d3e 8fd1 cd3b
00000010: 536f ebbc ae2f 1f3e a37f 3dbc 5887 e33d
00000020: bbf2 1a3e da79 35be da2e 873d 540b 0e3d
00000030: 0f4d 3b3d 8d66 1f3d e3ff 933d 8d35 c2bd

conv_encoder.conv4.0.weight f4 [32, 16, 3]
-0.010185496 0.13828729 0.099860206 -0.0054225326 -0.13575394 0.00632599 -0.0751253 0.1328226
-0.071865015 -0.0074329996 -0.029113794 0.029260512 0.13582563 0.008722529 0.08359513 0.11853312
0.12940434 -0.043889996 -0.034661785 0.07218593 -0.037657037 0.073083855 -0.021667304 -0.09554877
0.057397705 0.02178813 0.06455903 0.14339736 0.09854402 0.13682929 0.011814827 -0.11762152
-0.09811391 -0.08585641 -0.12116911 -0.07262139 -0.12899697 -0.13064118 -0.08347576 -0.14110781
-0.08115053 0.0612822 0.12608898 -0.038532753 -0.037631363 0.07706952 -0.068329155 -0.0682475
0.08893064 -0.12576155 0.017648846 0.12750521 0.024751946 0.0392517 -0.08406092 -0.0019913614
0.007936329 0.03542538 0.056081787 0.12541893 -0.110172786 0.004326567 -0.072116286 -0.11418024
-0.01155822 -0.12705125 0.10073307 0.01671642 -0.07779189 0.075427786 -0.1366051 -0.05582966
-0.02811966 -0.122650884 -0.09178257 -0.02355858 0.10951823 0.13938019 0.09183657 -0.08618742
-0.09442869 0.1259624 0.051054716 0.0038347095 0.0195335 -0.11600363 -0.04819221 0.13894194
-0.035598293 -0.0072405636 -0.11984797 -0.08074346 -0.0029473156 -0.089656636 -0.017899245 0.0587395
-0.14118773 0.04287 -0.09543717 -0.0704441 0.05541259 0.11476573 -0.0394487 -0.05926054
-0.1305152 -0.074428774 -0.1263873 -0.033034615 0.02945286 -0.13522635 0.12602308 0.09055607
-0.14129867 -0.068940386 0.04707645 -0.029655538 -0.015729398 -0.065170676 0.11593476 -0.080684446
0.11969578 0.009312987 0.02901499 0.11260232 -0.023781866 -0.082177624 -0.023344323 0.11706546
-0.10709664 0.032761812 -0.14185372 0.075676486 0.053328067 0.0061187893 0.061948687 0.00016234815
0.0798696 -0.11426058 -0.021196328 0.064030245 0.14373377 0.07352431 -0.10495858 0.11100957
-0.032949597 -0.037092503 -0.13651364 -0.022720799 0.10209383 0.020127133 -0.07660148 0.056348544
-0.045078706 0.1393439 -0.13198751 -0.044231668 -0.13936853 -0.05185137 0.04550208 0.13751416
0.030368563 0.13940251 0.024806788 0.07496616 0.12210356 0.12896714 -0.07379486 0.12552373
0.083293304 -0.07418144 -0.07529146 -0.121062584 0.036248535 -0.116992705 0.0697483 0.054249458
-0.1289856 0.046650272 -0.0217814 0.06612562 0.07306483 -0.13601293 0.14009258 0.1169435
0.067194514 -0.122795515 -0.060803976 -0.03109584 -0.028342484 0.08139528 0.06009606 0.1143412
-0.054057762 0.048575327 0.051354602 -0.12017413 -0.1400103 -0.07489519 0.09880595 -0.135888
-0.1256363 0.08085799 0.0778743 0.11870217 -0.108966015 -0.10564063 0.074043244 0.12552032
0.086362764 0.022610784 0.047570005 0.13699463 -0.09312722 -0.065530956 0.10095936 -0.098761484
-0.079589546 0.10536513 0.04554169 0.046631142 -0.06117609 -0.0019919276 0.13210246 -0.08663431
0.0011348128 0.06864688 -0.09964434 0.14017731 -0.07211257 -0.034660652 -0.039053455 -0.09405886
-0.14163335 0.08138497 0.038346753 -0.13518667 -0.09289953 0.14265862 0.05517088 0.057914674
-0.056831904 -0.04337291 0.0033680277 -0.026396446 -0.09890708 0.011891246 0.04466267 0.007127751
0.051014468 -0.052473146 0.05726543 0.06723401 -0.07602823 -0.13812901 0.07555124 0.06509161
00000000: 11e1 26bc 2f9b 0d3e 8283 cc3d 80af b1bb
00000010: 1503 0bbe 404a cf3b 4bdb 99bd a602 083e
00000020: f72d 93bd 8590 f3bb 0d80 eebc beb3 ef3c
00000030: e015 0b3e f0e8 0e3c ec33 ab3d 7ec1 f23d
00000040: 9282 043e ffc5 33bd 84f9 0dbd 38d6 933d
00000050: 443e 1abd fdac 953d a17f b1bc 13af c3bd
00000060: db19 6b3d 057d b23c 8637 843d c2d6 123e
00000070: 72d1 c93d fa1c 0c3e fa92 413c 8de3 f0bd
00000080: f2ef c8bd 7cd5 afbd 8327 f8bd 86ba 94bd
00000090: c817 04be cdc6 05be 57f5 aabd 917e 10be
000000a0: 4032 a6bd 0b03 7b3d 781d 013e 85d4 1dbd
000000b0: 5823 1abd a0d6 9d3d 28f0 8bbd 58c5 8bbd
000000c0: 4421 b63d a3c7 00be 5094 903c ba90 023e
000000d0: 98c4 ca3c 64c6 203d 2228 acbd 8081 02bb
000000e0: 6007 023c 341a 113d 04b6 653d d26d 003e
000000f0: 45a2 e1bd e0c5 8d3b b4b1 93bd 54d7 e9bd
00000100: b05e 3dbc b919 02be 244d ce3d e0f0 883c
00000110: 5b51 9fbd e279 9a3d 35e2 0bbe a4ad 64bd
00000120: 345b e6bc 6330 fbbd 80f8 bbbd ecfd c0bc
00000130: 184b e03d aeb9 0e3e d014 bc3d 0883 b0bd
00000140: d463 c1bd 4afc 003e c01e 513d c04f 7b3b
00000150: b804 a03c 5093 edbd 3265 45bd cc46 0e3e
00000160: 84cf 11bd 4042 edbb da72 f5bd d45c a5bd
00000170: c027 41bb e69d b7bd 70a1 92bc d498 703d
00000180: 8493 10be 7498 2f3d 9074 c3bd ff44 90bd
00000190: 50f8 623d 4c0a eb3d f694 21bd 2ebb 72bd
000001a0: c7a5 05be 1d6e 98bd ac6b 01be 4e4f 07bd
000001b0: 2047 f13c c778 0abe 320c 013e 7675 b93d
000001c0: 99b0 10be 9e30 8dbd 3cd3 403d 2cf0 f2bc
000001d0: f0da 80bc 3478 85bd 346f ed3d e33d a5bd
000001e0: 1023 f53d 8095 183c d8b0 ed3c 0c9c e63d
000001f0: 30d2 c2bc be4c a8bd 983c bfbc 04c0 ef3d
00000200: 7c55 dbbd 4031 063d 1a42 11be 46fc 9a3d
00000210: 886e 5a3d 2080 c83b e8bd 7d3d 003c 2a39
00000220: ac92 a33d 7301 eabd eca3 adbc 4a22 833d
00000230: f22e 133e ea93 963d 86f4 d6bd fc58 e33d
00000240: 28f6 06bd 4fee 17bd 3bca 0bbe f820 babc
00000250: 9216 d13d a8e1 a43c 3de1 9cbd bbcd 663d
00000260: 73a4 38bd 2bb0 0e3e bc27 07be 442c 35bd
00000270: a0b6 0ebe 1a62 54bd 6460 3a3d 83d0 0c3e
00000280: 7ec7 f83c 88bf 0e3e 9b37 cb3c dc87 993d
00000290: 6e11 fa3d f60f 043e c221 97bd 4b89 003e
000002a0: ae95 aa3d 70ec 97bd 6932 9abd a9ef f7bd
000002b0: 5879 143d df99 efbd 32d8 8e3d ae34 5e3d
000002c0: cd14 04be 5b14 3f3d e86e b2bc de6c 873d
000002d0: 03a3 953d f946 0bbe 6e74 0f3e 1380 ef3d
000002e0: 479d 893d 377c fbbd 970d 79bd b4bc febc
000002f0: 7f2e e8bc 92b2 a63d 4927 763d b82b ea3d
00000300: ac6b 5dbd ecf6 463d 3459 523d db1d f6bd
00000310: dc5e 0fbe a662 99bd c65a ca3d 3926 0bbe
00000320: cda6 00be e098 a53d 907c 9f3d 201a f33d
00000330: 9329 dfbd 1d5a d8bd fca3 973d 6688 003e
00000340: f6de b03d 403a b93c c4d8 423d 5248 0c3e
00000350: 7cb9 bebd 1835 86bd c8c3 ce3d 7643 cabd
00000360: d8ff a2bd acc9 d73d ec89 3a3d 4c00 3f3d
00000370: c893 7abd 008b 02bb de45 073e 546d b1bd
00000380: 00be 943a bc96 8c3d 5512 ccbd a48a 0f3e
00000390: c1af 93bd 54f8 0dbd 84f6 1fbd eea1 c0bd
000003a0: 5508 11be 2aad a63d 7c11 1d3d 606e 0abe
000003b0: 1c42 bebd 1a15 123e dcfa 613d f037 6d3d
000003c0: 92c8 68bd cba7 31bd 21ba 5c3b 5c3d d8bc
000003d0: cc8f cabd 80d3 423c 34f0 363d e98f e93b
000003e0: 8cf4 503d 15ee 56bd 288f 6a3d fcb1 893d
000003f0: b0b4 9bbd b171 0dbe 9cba 9a3d c04e 853d

conv_encoder.conv4.0.bias f4 [32]
0.07948321 0.017198712 -0.07219019 0.07527141 -0.14203097 0.14609294 0.011631891 0.04296156
0.06674828 0.023828218 0.05556507 0.11911038 -0.11264947 0.124766886 -0.021612935 -0.033565566
0.023112644 0.101849854 -0.0784641 -0.09727357 0.1159732 -0.067790724 0.021371024 -0.021264695
0.02531196 0.12850846 -0.07315013 -0.07004176 0.08348934 0.007902831 -0.015885532 -0.12678441
00000000: 18c8 a23d 50e4 8c3c 73d8 93bd e627 9a3d
00000010: 9170 11be 6399 153e b093 3e3c 76f8 2f3d
00000020: 52b3 883d 6533 c33c 3398 633d 25f0 f33d
00000030: c4b4 e6bd c885 ff3d 9c0d b1bc 0c7c 09bd
00000040: ba56 bd3c a896 d03d c9b1 a0bd 5e37 c7bd
00000050: 5b83 ed3d ddd5 8abd 4912 af3c 4c33 aebc
00000060: 075b cf3c b997 033e bccf 95bd 0e72 8fbd
00000070: 76fc aa3d e07a 013c 6022 82bc c6d3 01be

conv_encoder.output.0.weight f4 [64, 32]
0.14924029 -0.0066946894 -0.032560036 -0.0856112 -0.034884796 0.07785876 -0.004062921 0.14178744
-0.010206148 -0.024571884 0.10255687 -0.010989379 -0.035283387 0.052126396 0.13941158 0.04411453
0.12903017 0.106535085 0.049992055 0.061463237 0.05184573 0.018336475 0.16121657 0.16318972
0.074367404 -0.014735383 0.15849693 -0.13758893 0.12843725 0.09366082 0.11351471 -0.013582751
-0.12714405 0.12610169 -0.0772966 0.040913366 0.10015197 -0.15595134 0.011731595 -0.060766473
0.12546821 -0.107714534 0.11146977 0.11081669 0.09753032 0.17276631 0.02677302 -0.16022706
0.13213395 0.0147279035 0.0035081357 -0.16839558 -0.037836045 -0.08580171 0.18032864 0.1258701
0.1397943 0.12221339 -0.10957926 -0.07592021 -0.06344328 -0.07086664 0.13760866 0.060062855
0.16140562 -0.008269429 -0.15758355 -0.029079918 0.12423773 0.13575791 0.05472502 -0.02460188
-0.16499825 -0.076849684 0.096760474 -0.04544998 0.08455913 0.073089965 -0.067897685 0.10767086
-0.05086511 0.016081322 -0.067336544 -0.16768534 0.0533506 0.05108303 -0.07118374 0.1084431
-0.14157219 -0.1458917 -0.10918594 -0.061094888 0.0048417007 -0.0341617 0.080678836 -0.15514371
0.030939782 0.0030613542 0.046692073 0.18775366 0.10879694 -0.080267884 -0.1448601 -0.022419382
-0.08867595 0.065596685 0.0032823493 0.16027962 0.06943898 -0.016675152 0.0060757995 0.04233554
-0.027875239 0.1531391 -0.13822174 0.086162016 -0.095126614 -0.15487078 -0.027784964 0.086144164
0.1322505 0.0607867 -0.015278637 -0.009909987 -0.057383176 -0.015863478 -0.012214199 0.15043037
0.095050335 -0.14146094 0.0007312745 -0.12137325 -0.028061688 -0.15785435 0.045955062 -0.15469743
0.17451768 0.12618954 -0.12553576 -0.18962294 0.0068974197 -0.06679718 0.051895753 -0.119662635
0.078301564 -0.16184288 -0.093297444 -0.09293182 0.06599328 -0.004628226 -0.16722116 -0.10096071
-0.07892606 -0.18271202 0.022635698 0.06299223 -0.048908766 -0.07034737 -0.001072064 -0.1404105
-0.1127906 -0.0040316135 0.1570444 -0.07837329 0.08762105 -0.10024579 -0.04705757 -0.19416021
0.14645685 0.16872877 -0.003280948 0.0855263 0.14459302 0.05887021 0.0910434 -0.16828975
-0.17205076 -0.15731296 0.055293202 -0.15290771 -0.16256082 -0.085684165 -0.18468994 0.00023819506
0.02599016 -0.13041562 0.11574726 -0.067112364 -0.06890352 0.13468178 0.15177192 -0.0202799
-0.13717225 -0.0886834 0.022510603 0.077332295 0.088007346 -0.11060189 -0.16711879 -0.18092954
-0.056242608 -0.0060690185 -0.07437729 -0.16442941 0.018630087 -0.16951454 -0.1357511 -0.1437099
-0.053841226 0.13275088 0.06910543 -0.020960242 0.0074850502 0.070394084 -0.015599345 -0.14258355
-0.116812445 -0.14925006 -0.004488766 -0.16182168 -0.058274694 -0.06464229 0.17348336 0.14368837
0.099956 0.009914041 -0.05723548 0.05693453 -0.12214026 -0.075028785 -0.035511866 -0.033493806
-0.16746095 0.06711977 0.14140113 -0.08407821 0.047653034 -0.010271147 -0.006447479 0.010304317
0.14725246 0.033397425 -0.11184256 -0.06358897 0.100057594 0.055163965 0.0070913746 -0.02333045
-0.07319845 -0.05207318 -0.09324723 0.028966933 0.048388053 0.13536589 -0.03993623 0.012655228
00000000: 72d2 183e 205f dbbb ac5d 05bd ed54 afbd
00000010: 5ce3 0ebd 6a74 9f3d 4022 85bb ba30 113e
00000020: b037 27bc fa4a c9bc 5609 d23d cc0c 34bc
00000030: 5085 10bd 7d82 553d e9c1 0e3e 70b1 343d
00000040: 7c20 043e 112f da3d 78c4 4c3d e0c0 7b3d
00000050: 305c 543d 6036 963c f515 253e 351b 273e
00000060: f04d 983d ad6c 71bc 054d 223e 1de4 0cbe
00000070: 0e85 033e 3ed1 bf3d 667a e83d 308a 5ebc
00000080: 0d32 02be cd20 013e ae4d 9ebd c694 273d
00000090: 7a1c cd3d b5b1 1fbe e035 403c 44e6 78bd
000000a0: bd7a 003e 7099 dcbd 434a e43d dcf3 e23d
000000b0: fabd c73d a7e9 303e 1853 db3c 9012 24be
000000c0: 1f4e 073e 4e4d 713c c0e8 653b e46f 2cbe
000000d0: f8f9 1abd cfb8 afbd 12a8 383e 17e4 003e
000000e0: 3d26 0f3e 044b fa3d 176b e0bd 0e7c 9bbd
000000f0: 8dee 81bd 8722 91bd 49e9 0c3e 7804 763d
00000100: 8447 253e 807c 07bc 955d 21be 0239 eebc
00000110: 5a70 fe3d 1f04 0b3e 5827 603d e289 c9bc
00000120: 4df5 28be 5e63 9dbd 5b2a c63d c229 3abd
00000130: 562d ad3d 31b0 953d f10d 8bbd 8a82 dc3d
00000140: ef57 50bd fabc 833c bee7 89bd b5b5 2bbe
00000150: 2986 5a3d 703c 513d c8c8 91bd 6a17 de3d
00000160: 4df8 10be a264 15be e19c dfbd a23e 7abd
00000170: 21a7 9e3b 24ed 0bbd f23a a53d fedd 1ebe
00000180: 6d75 fd3c 00a1 483b 3040 3f3d 7f42 403e
00000190: eed0 de3d 7d63 a4bd 3556 14be daa8 b7bc
000001a0: bd9b b5bd 8e57 863d af1c 573b 5720 243e
000001b0: 0636 8e3d 549a 88bc 8017 c73b 0868 2d3d
000001c0: 9d5a e4bc 7fd0 1c3e 008a 0dbe b675 b03d
000001d0: bed1 c2bd 7296 1ebe 4b9d e3bc 5a6c b03d
000001e0: ad6c 073e 7afb 783d 4053 7abc 805d 22bc
000001f0: 9f0a 6bbd 20f4 81bc 101e 48bc 6b0a 1a3e
00000200: c0a9 c23d 23db 10be 00b3 3f3a 8a92 f8bd
00000210: a0e1 e5bc 92a4 21be 603b 3c3d 0169 1ebe
00000220: c3b4 323e d537 013e 728c 00be 842c 42be
00000230: c003 e23b f6cc 88bd a490 543d af11 f5bd
00000240: 925c a03d 24ba 25be bb12 bfbd 0a53 bebd
00000250: 7c27 873d 60a8 97bb 063c 2bbe 7dc4 cebd
00000260: fca3 a1bd dc18 3bbe 806e b93c 1202 813d
00000270: 8f54 48bd 4812 90bd 8084 8cba c5c7 0fbe
00000280: c2fe e6bd a01b 84bb 3fd0 203e 2d82 a0bd
00000290: aa72 b33d aa4d cdbd 70bf 40bd efd1 46be
000002a0: c9f8 153e 3cc7 2c3e 2c05 57bb 6a28 af3d
000002b0: 3110 143e e421 713d f674 ba3d 2654 2cbe
000002c0: 132e 30be a616 21be 207b 623d d793 1cbe
000002d0: 5876 26be 2e7b afbd 5c1f 3dbe 00c4 7939
000002e0: 51e9 d43c ac8b 05be e60c ed3d 3572 89bd
000002f0: 4a1d 8dbd 05ea 093e 196a 1b3e 0822 a6bc
00000300: e276 0cbe a49f b5bd 2868 b83c 6560 9e3d
00000310: 323d b43d 3e83 e2bd 3021 2bbe 9845 39be
00000320: a65e 66bd 9ede c6bb 1f53 98bd 2f60 28be
00000330: 209e 983c 3895 2dbe 5602 0bbe b028 13be
00000340: 9e88 5cbd d9ef 073e 2687 8d3d d0b4 abbc
00000350: 2745 f53b c62a 903d 6594 7fbc 6c01 12be
00000360: 5d3b efbd 02d5 18be 8016 93bb 95b4 25be
00000370: 72b1 6ebd 2d63 84bd 9fa5 313e 0b23 133e
00000380: bbb5 cc3d 806e 223c c06f 6abd 2f34 693d
00000390: ac24 fabd b1a8 99bd e474 11bd cd30 09bd
000003a0: e27a 2bbe 1776 893d 75cb 103e 3231 acbd
000003b0: d42f 433d 5048 28bc 6045 d3bb 70d3 283c
000003c0: 59c9 163e bdcb 083d b60d e5bd ef3a 82bd
000003d0: ffea cc3d 9cf3 613d c35e e83b 801f bfbc
000003e0: 12e9 95bd b04a 55bd 67f8 bebd 104c ed3c
000003f0: 8d32 463d 5b9d 0a3e 2c94 23bd e057 4f3c

conv_encoder.output.0.bias f4 [64]
-0.11852885 -0.039768256 0.1532906 -0.016459994 -0.14715427 -0.08276744 -0.021230431 -0.021957718
-0.123283625 -0.1367732 0.06693787 0.14585398 0.1507061 -0.035409134 0.047796644 -0.1420897
0.12025832 0.19807866 0.12057159 -0.05765744 0.16887535 -0.19319247 -0.0019173677 -0.06863684
-0.16020343 -0.12222012 -0.120899394 0.024937643 -0.035366163 0.08636311 -0.038430292 0.13486634
0.018153308 0.16504428 0.16306704 -0.17838046 -0.14355305 0.088939235 0.16384703 -0.15299952
0.009159974 -0.06866166 0.16366673 0.16978313 0.114943966 0.0791279 -0.0008948265 0.18686378
-0.1088406 -0.0019756018 -0.046295963 -0.13411532 -0.07676817 0.019078301 -0.027019376 -0.10886331
-0.04875353 0.011478045 -0.13282141 0.118587725 -0.1606893 -0.02073054 -0.13299106 -0.17780016
00000000: 41bf f2bd 0ae4 22bd 36f8 1c3e 1cd7 86bc
00000010: 9caf 16be fa81 a9bd 71eb adbc ace0 b3bc
00000020: 207c fcbd 460e 0cbe b916 893d bf5a 153e
00000030: b352 1a3e 2b09 11bd 6ac6 433d f67f 11be
00000040: fe49 f63d 22d5 4a3e 3dee f63d 352a 6cbd
00000050: a9ed 2c3e 3fd4 45be 2f50 fbba 7991 8cbd
00000060: 5e0c 24be 8b4e fabd 1a9a f7bd 074a cc3c
00000070: 1cdc 10bd 24df b03d 1569 1dbd 671a 0a3e
00000080: 3fb6 943c 5e01 293e 0cfb 263e 5ea9 36be
00000090: 92ff 12be c625 b63d 84c7 273e e8ab 1cbe
000000a0: b713 163c 7c9e 8cbd 4098 273e a1db 2d3e
000000b0: be67 eb3d cf0d a23d ca92 6aba 3859 3f3e
000000c0: d2e7 debd 1979 01bb d6a0 3dbd 8755 09be
000000d0: a138 9dbd 194a 9c3c bd57 ddbc baf3 debd
000000e0: c8b1 47bd 690e 3c3c 5602 08be 1fde f23d
000000f0: bc8b 24be 18d3 a9bc cf2e 08be 3f11 36be

conv_encoder_in_decoder.conv1.0.weight f4 [4, 1, 3]
-0.037938785 0.5683439 0.57695615 0.18400407 0.42400312 -0.3156078 0.36513123 0.4036446
-0.51240754 -0.46585572 0.22707227 0.013832856
00000000: b365 1bbd fc7e 113f 66b3 133f 906b 3c3e
00000010: f016 d93e 5897 a1be 7bf2 ba3e 81aa ce3e
00000020: 242d 03bf a484 eebe a285 683e 34a3 623c

conv_encoder_in_decoder.conv1.0.bias f4 [4]
-0.36229968 -0.47910064 0.45484507 0.025661977
00000000: 587f b9be ae4c f5be 74e1 e83e 1139 d23c

conv_encoder_in_decoder.conv2.0.weight f4 [8, 4, 3]
-0.0006388724 -0.27906656 0.25328153 -0.19083154 0.12863004 -0.0347113 0.009406686 0.14174247
-0.076899946 -0.080986634 0.23012716 -0.22120604 0.1658695 -0.038080856 -0.058321126 0.19324407
0.09940883 -0.2687609 0.29921564 -0.103838995 0.29096627 -0.04262716 0.3294349 0.13300045
0.028799253 0.15100202 0.0315669 -0.14317816 0.18876067 0.18724039 0.0031898792 0.3079577
0.05753096 -0.1106846 -0.1181857 0.23346269 -0.065807365 0.2306192 -0.24754447 0.009944022
-0.14897294 0.102399796 0.27294943 0.15225706 -0.061058506 -0.22828966 -0.095390044 -0.12652886
0.2560405 -0.16361563 0.10283361 0.23173851 0.059973028 -0.25331405 -0.058837384 -0.11419228
0.16110972 -0.06321662 -0.048234712 0.21836635 0.10922279 0.1775232 -0.047880325 0.188786
0.07425328 -0.057987154 0.09062711 -0.19508411 0.04598182 0.1732979 -0.2291176 -0.11510883
0.22076511 0.042467248 0.024798444 0.02945894 -0.085777104 0.23871201 0.0028541256 -0.07366352
0.18204793 -0.20395973 -0.019501865 0.07035207 -0.089588135 0.15711272 -0.24652831 -0.083223194
-0.121329546 0.26712066 0.11520597 -0.21534093 0.11188027 -0.0061219633 0.26426077 0.15930957
00000000: 007a 27ba d0e1 8ebe 1eae 813e 5869 43be
00000010: 98b7 033e 702d 0ebd 801e 1a3c f024 113e
00000020: b87d 9dbd 52dc a5bd 74a6 6b3e d683 62be
00000030: b2d9 293e acfa 1bbd 22e2 6ebd c6e1 453e
00000040: db96 cb3d 079b 89be cb32 993e 8aa9 d4bd
00000050: 88f9 943e d199 2ebd b1ab a83e 4531 083e
00000060: 69ec eb3c 46a0 1a3e 4b4c 013d 4c9d 12be
00000070: 7a4a 413e f2bb 3f3e 4b0d 513b a2ac 9d3e
00000080: 95a5 6b3d 9cae e2bd 580b f2bd d810 6f3e
00000090: 03c6 86bd 7127 6c3e 4c7c 7dbe 40ec 223c
000000a0: 5d8c 18be fcb6 d13d 07c0 8b3e 46e9 1b3e
000000b0: 7c18 7abd c4c4 69be db5b c3bd c890 01be
000000c0: be17 833e db8a 27be 6d9a d23d dc4c 6d3e
000000d0: 47a6 753d 61b2 81be 78ff 70bd a4dd e9bd
000000e0: f2f9 243e b777 81bd c391 45bd 6e9b 5f3e
000000f0: 33b0 df3d a4c8 353e 291e 44bd 1e51 413e
00000100: 1b12 983d f083 6dbd b59a b93d 21c4 47be
00000110: 6f57 3c3d 0175 313e ce9d 6abe 2ebe ebbd
00000120: 4010 623e 23f2 2d3d 1b26 cb3c e053 f13c
00000130: e8ab afbd ec70 743e 480c 3b3b e6dc 96bd
00000140: c66a 3a3e d2da 50be 60c2 9fbc bf14 903d
00000150: fc79 b7bd 28e2 203e eb71 7cbe ec70 aabd
00000160: a07b f8bd 0ac4 883e 1cf1 eb3d 5582 5cbe
00000170: 7c21 e53d c09a c8bb 304d 873e 0c22 233e

conv_encoder_in_decoder.conv2.0.bias f4 [8]
-0.16859426 0.29351097 -0.018550262 -0.032385617 0.059091922 0.31689516 0.11233794 -0.27853212
00000000: f9a3 2cbe 1247 963e b8f6 97bc c8a6 04bd
00000010: 5f0a 723d 1540 a23e 6f11 e63d c39b 8ebe

conv_encoder_in_decoder.conv3.0.weight f4 [16, 8, 3]
-0.06516154 0.19007769 -0.07194415 -0.09820308 -0.16270468 -0.11267924 -0.11160389 0.04875037
0.0815528 0.19481102 0.13396025 0.003016144 0.11008331 0.11667475 -0.17606218 0.103000045
-0.13963467 0.15762809 -0.08878244 0.042353272 -0.0021719635 0.094702035 0.031749517 -0.14807063
0.08268881 0.12041208 -0.106300585 -0.1324167 -0.13899514 -0.0993177 -0.025735155 0.015262455
-0.0014397204 -0.053988636 0.12667093 0.010787427 -0.11852522 -0.054021448 -0.1200117 -0.072012275
-0.19255127 0.035666674 -0.15816289 0.07894817 0.13983315 -0.15185359 -0.10772273 -0.16128597
0.05447474 0.039497003 -0.10535819 0.16389602 0.12599228 -0.14325161 0.031048058 -0.048693426
0.009829847 0.14970508 0.016123217 -0.10568649 0.18851107 -0.13948202 -0.0233502 0.118761316
0.22092809 0.2386235 -0.005481226 0.11198674 -0.13447653 -0.03971854 -0.063494146 0.05794549
-0.13374266 0.044100463 0.10545766 0.19731519 0.004448583 0.22543043 -0.15137371 -0.019570882
0.11987872 0.085362695 0.13188635 -0.10164985 0.16910268 -0.14556909 -0.0943769 0.023971256
-0.15985657 -0.1553167 -0.1408767 0.2066353 0.08721819 -0.06513016 -0.008389264 -0.17791842
-0.19278519 -0.14235193 -0.19747755 0.15791617 -0.0475442 -0.032020077 -0.14652832 0.06382146
-0.0031328222 -0.11901108 0.15800454 0.19066638 -0.1154996 0.14615874 -0.00383335 0.02163223
0.109252326 -0.014336223 0.20149316 0.15275386 -0.1057441 -0.1242223 -0.20224622 0.0653536
-0.1535395 -0.17109257 -0.13083687 -0.16836095 -0.13245703 0.2150695 0.14667952 0.21318766
-0.06440388 -0.05347543 -0.036312692 0.034898974 -0.10896946 0.06749499 -0.09256326 0.06465657
0.2202835 0.0668394 0.18351917 -0.10968821 0.0069713485 -0.12604228 -0.022646934 -0.08119995
-0.11589932 -0.1971718 -0.07568778 0.027335986 -0.035909623 -0.19011003 0.15333366 0.15135539
-0.1230667 0.020750284 0.13554028 -0.19384615 -0.18036413 0.11326143 -0.0040429085 0.06500089
-0.08488604 0.037009865 0.13538346 -0.04993847 -0.06593321 -0.19436479 -0.03149806 0.12934646
-0.19291137 -0.015767917 0.14879319 -0.05826004 -0.075417414 -0.061570317 -0.082702346 0.024430856
-0.19653155 0.07800344 -0.051552743 -0.025988787 -0.01377207 0.11403081 -0.1267947 -0.18574966
-0.14765304 -0.14974353 -0.09938162 0.16122043 -0.15791354 -0.11998988 -0.16640276 -0.10254441
-0.0057304204 -0.124467894 0.0021575987 0.11083127 0.0073803123 0.12925172 0.09320831 0.24314919
0.029375704 0.21526203 0.19555928 0.13440229 0.16229434 -0.09016155 -0.091610216 0.12826133
0.115138836 0.22505425 0.01918978 0.0075172735 0.18251744 0.0065922886 0.19163632 -0.10411828
-0.06697354 0.008819804 0.10886848 -0.15142384 -0.028339665 0.17758453 0.07265354 0.17078468
-0.032938648 -0.10760377 -0.118090875 -0.091927536 -0.120917514 0.13729443 0.09114649 -0.103591405
0.21591216 0.08698282 0.10541163 -0.053225324 0.17624804 -0.14398688 0.14879161 -0.11092392
0.08669889 -0.07384476 0.13261318 -0.17119305 -0.03979987 -0.055096433 -0.12206054 -0.10026459
-0.057278275 0.021165445 0.14488855 -0.03354317 0.20008263 -0.09713659 -0.10508615 -0.0106476545
00000000: 6a73 85bd baa3 423e 7457 93bd b21e c9bd
00000010: 0e9c 26be 60c4 e6bd 9590 e4bd 78ae 473d
00000020: 2805 a73d 8a7c 473e e02c 093e 80aa 453b
00000030: 5c73 e13d 2cf3 ee3d a549 34be b0f1 d23d
00000040: 64fc 0ebe 4269 213e 91d3 b5bd a07a 2d3d
00000050: 8057 0ebb 24f3 c13d c80b 023d d49f 17be
00000060: c058 a93d 9c9a f63d 1fb4 d9bd 3e98 07be
00000070: be54 0ebe 1467 cbbd 88d2 d2bc 600f 7a3c
00000080: 00b5 bcba 3023 5dbd 06b6 013e c0bd 303c
00000090: 5abd f2bd 9845 5dbd b2c8 f5bd 2c7b 93bd
000000a0: 292c 45be 3817 123d 74f5 21be 94af a13d
000000b0: 6c30 0f3e 827f 1bbe bc9d dcbd 2628 25be
000000c0: e820 5f3d 9cc7 213d 09c6 d7bd 5cd4 273e
000000d0: 1f04 013e 8db0 12be 7f58 fe3c c272 47bd
000000e0: 5e0d 213c 4a4c 193e d614 843c 2972 d8bd
000000f0: 0c09 413e 60d4 0ebe eb48 bfbc 2239 f33d
00000100: f93a 623e b859 743e db9b b3bb 4e59 e53d
00000110: 37b4 09be e8af 22bd 3809 82bd 4058 6d3d
00000120: d6f3 08be b0a2 343d 30fa d73d fe0c 4a3e
00000130: 6bc5 913b 3cd7 663e b601 1bbe 1d53 a0bc
00000140: f982 f53d a3d2 ae3d 370d 073e cc2d d0bd
00000150: 4129 2d3e 1010 15be ad48 c1bd 5e5f c43c
00000160: 71b1 23be 570b 1fbe fb41 10be 3498 533e
00000170: 739f b23d f662 85bd 2073 09bc 3f30 36be
00000180: 7b69 45be b4c4 11be 8e37 4abe c7b4 213e
00000190: b5bd 42bd 7c27 03bd 850b 16be d3b4 823d
000001a0: 0950 4dbb 15bc f3bd f1cb 213e 0c3e 433e
000001b0: 0e8b ecbd a3aa 153e f138 7bbb 1336 b13c
000001c0: afbf df3d 7ae2 6abc 3954 4e3e 826b 1c3e
000001d0: 5d90 d8bd 4368 febd a219 4fbe 1cd8 853d
000001e0: 7539 1dbe e432 2fbe 1afa 05be d066 2cbe
000001f0: d1a2 07be 2e3b 5c3e 2833 163e de4d 5a3e
00000200: 2ee6 83bd 0d09 5bbd 9ebc 14bd 3af2 0e3d
00000210: 612b dfbd d03a 8a3d ce91 bdbd aa6a 843d
00000220: ff91 613e 18e3 883d 73ec 3b3e 36a4 e0bd
00000230: e96f e43b 3a11 01be 1086 b9bc 294c a6bd
00000240: 9f5c edbd 68e7 49be 3202 9bbd b8ef df3c
00000250: f815 13bd 34ac 42be 8003 1d3e e8fc 1a3e
00000260: 650a fcbd 80fc a93c 12cb 0a3e 9b7f 46be
00000270: 60b1 38be 9cf5 e73d 607a 84bb 301f 853d
00000280: bbd8 adbd a897 173d f6a1 0a3e 488c 4cbd
00000290: fe07 87bd 9007 47be 1c04 01bd 6673 043e
000002a0: 8f8a 45be b82b 81bc 3e5d 183e 14a2 6ebd
000002b0: 7274 9abd 2831 7cbd d95f a9bd 3823 c83c
000002c0: 913f 49be 44c0 9f3d f828 53bd 70e6 d4bc
000002d0: 40a4 61bc fc88 e93d 78d6 01be 2935 3ebe
000002e0: 5c32 17be 5e56 19be 9788 cbbd f816 253e
000002f0: 16b4 21be 41bd f5bd 7c65 2abe ce02 d2bd
00000300: 40c6 bbbb 06e9 febd 8066 0d3b 81fb e23d
00000310: 8cd6 f13b 905a 043e 00e4 be3d 1afc 783e
00000320: 51a5 f03c a66d 5c3e b140 483e c1a0 093e
00000330: 7d30 263e 9ea6 b8bd 239e bbbd f056 033e
00000340: e9cd eb3d 9f74 663e e333 9d3c 7653 f63b
00000350: dae5 3a3e 2004 d83b 503c 443e f73b d5bd
00000360: 6c29 89bd f080 103c 70f6 de3d da0e 1bbe
00000370: 9628 e8bc b8d8 353e 61cb 943d 2ee2 2e3e
00000380: adea 06bd 5e5f dcbd a1d9 f1bd 8144 bcbd
00000390: 9aa3 f7bd e996 0c3e 03ab ba3d bb27 d4bd
000003a0: 1418 5d3e 0c24 b23d 0de2 d73d cc02 5abd
000003b0: 5e7a 343e 4c71 13be d45c 183e 152c e3bd
000003c0: 308f b13d ec3b 97bd c0cb 073e 3b4d 2fbe
000003d0: 3005 23bd ccac 61bd e0fa f9bd 8557 cdbd
000003e0: a09c 6abd 2863 ad3c aa5d 143e 9064 09bd
000003f0: 76e2 4c3e 8cef c6bd 6837 d7bd 8073 2ebc

conv_encoder_in_decoder.conv3.0.bias f4 [16]
0.07988274 0.107527494 -0.0072142542 0.20908587 0.22399044 0.18958814 -0.18747933 -0.07424764
0.051373422 0.19189689 -0.03424132 0.042641386 0.13198048 -0.071670555 -0.11356383 0.23781389
00000000: 9099 a33d 6037 dc3d 8d65 ecbb 9b1a 563e
00000010: c05d 653e 6523 423e 95fa 3fbe 260f 98bd
00000020: f06c 523d 9e80 443e a040 0cbd bca8 2e3d
00000030: e425 073e 03c8 92bd 2794 e8bd 7c85 733e

conv_encoder_in_decoder.conv4.0.weight f4 [32, 16, 3]
-0.0032206923 0.1021315 -0.14074239 -0.055093482 0.101279736 -0.013973922 0.048616514 -0.120914474
0.14048761 -0.07204041 -0.0072983503 -0.09454058 -0.06403875 -0.12373874 -0.12633692 -0.02948755
-0.06366577 0.10662195 -0.0006983429 0.11223638 -0.024175033 0.030621931 0.13862216 -0.11168844
-0.06252779 0.12339443 -0.033091843 -0.038872115 0.011583641 -0.077486485 0.010380447 -0.059990883
0.045789585 -0.030639328 -0.048434474 -0.054372877 0.037500113 0.07243435 -0.13195917 -0.100665316
-0.13852331 0.067376226 0.108249724 -0.13867974 0.037522078 0.029272228 -0.077456236 0.031184405
0.11129537 0.14157629 0.062415227 -0.028619938 -0.08212529 -0.05497221 0.031126693 0.025586948
0.14378767 -0.100188576 0.044162698 -0.01665289 0.039587375 0.16814882 0.03385929 0.004434342
-0.019395685 -0.11632239 -0.13077131 0.06289059 -0.08814219 0.08194721 -0.04092148 0.052073285
0.13512646 0.053471386 0.079810254 0.152063 -0.015491919 0.13339864 -0.121391624 0.13216934
-0.04734478 -0.005432546 0.08097161 0.010596767 0.15530102 -0.032531947 -0.04966982 0.1599862
-0.05348703 0.13047996 0.16040248 0.12748466 -0.028357765 0.026712224 -0.098943435 -0.048261397
-0.02987478 -0.0953635 0.08327024 0.07563174 -0.041304067 -0.022699878 0.14864798 0.006658727
0.13755564 0.14201243 -0.04187817 -0.1302389 0.14049909 -0.06963316 0.1465233 -0.08373591
0.036394533 0.05227719 -0.03409537 0.11255649 -0.1308671 -0.059977703 -0.022720613 0.110545754
0.07618711 0.1063381 0.07396299 0.14034046 -0.02543511 -0.037683185 -0.019820265 0.05678059
-0.04232709 0.05301246 0.03957294 0.033938274 0.12507835 0.03239181 0.10420877 -0.030655798
-0.11766903 0.097552 0.06952233 0.13940507 0.06830065 0.010838361 -0.09275871 -0.12604648
0.028967336 0.11775115 -0.011220694 -0.04708808 0.072209254 -0.06988026 0.050931454 -0.11712705
-0.13080886 -0.0842063 -0.02471342 0.048670486 0.073030785 -0.0913584 -0.029643819 0.047525406
-0.03183099 0.0021690428 0.09344499 -0.041639008 0.07441497 0.117280126 0.048116967 -0.02564717
-0.09139183 -0.09539953 -0.028044835 0.045107856 0.078940764 -0.0069628954 0.116313785 -0.057168126
0.02878274 -0.07389661 0.03878495 0.12318769 0.050575778 0.0096710175 -0.05312039 -0.11842226
-0.0987716 -0.12381154 0.10258722 -0.060214132 -0.021596618 -0.12934183 -0.040247045 0.12276849
0.02653648 -0.02577342 0.07523 0.11127749 0.112318724 -0.106794864 0.010362983 -0.11852569
-0.09951694 0.11083454 -0.11499651 -0.0707856 0.06922002 0.14043659 -0.14021184 -0.09313817
-0.056599587 0.111812234 0.08411577 0.08998348 0.092485875 -0.036122367 0.106425345 -0.004055932
0.01356104 -0.03827721 0.06122957 0.06445573 -0.015299842 0.12706602 -0.03738144 0.036533237
0.131096 0.08132209 -0.052559294 -0.06538219 0.027856484 -0.0010939091 0.010158315 0.09297709
0.05045314 -0.080950834 -0.11784662 0.13645929 -0.015890121 -0.056863762 -0.1060103 0.13860431
0.07283355 -0.091500714 -0.12465954 0.12538916 0.062143356 -0.021201737 -0.090299755 0.12241803
-0.06318139 0.102047585 -0.10555656 -0.09828555 -0.10908646 0.16185905 0.1625256 -0.09317883
00000000: 4012 53bb 522a d13d c61e 10be b4a9 61bd
00000010: c06b cf3d e0f2 64bc 1c22 473d 02a2 f7bd
00000020: fcdb 0f3e ec89 93bd 0027 efbb 7e9e c1bd
00000030: c026 83bd bd6a fdbd 775e 01be e08f f1bc
00000040: 3363 82bd 9c5c da3d 0011 37ba 30dc e53d
00000050: b80a c6bc d8da fa3c f8f2 0d3e e9bc e4bd
00000060: 920e 80bd 38b6 fc3d 508b 07bd 5e38 1fbd
00000070: 50c9 3d3c 3cb1 9ebd c012 2a3c 00b9 75bd
00000080: dc8d 3b3d 54ff fabc 3a63 46bd 18b6 5ebd
00000090: b899 193d 7658 943d 4e20 07be 9e29 cebd
000000a0: 0ed9 0dbe 8cfc 893d 08b2 dd3d 1002 0ebe
000000b0: c0b0 193d 50cc ef3c 60a1 9ebd 7076 ff3c
000000c0: d4ee e33d 60f9 103e 1ca7 7f3d 5c74 eabc
000000d0: 4e31 a8bd 8a2a 61bd 68fd fe3c b89b d13c
000000e0: 133d 133e ab2f cdbd f2e3 343d a46b 88bc
000000f0: 5f26 223d 342f 2c3e 0ab0 0a3d f54d 913b
00000100: b3e3 9ebc 6f3a eebd eae8 05be c8cc 803d
00000110: e483 b4bd f0d3 a73d 489d 27bd cc4a 553d
00000120: 975e 0a3e d004 5b3d 8f73 a33d 67b6 1b3e
00000130: d1d1 7dbc a799 083e 2c9c f8bd 6657 073e
00000140: 9aec 41bd 8003 b2bb 72d4 a53d 109e 2d3c
00000150: 3b07 1f3e 3840 05bd 9572 4bbd 6cd3 233e
00000160: 3715 5bbd 8a9c 053e 8c40 243e 578b 023e
00000170: 8b4e e8bc 98d3 da3c dba2 cabd bead 45bd
00000180: f4bb f4bc f04d c3bd 9689 aa3d d0e4 9a3d
00000190: 742e 29bd 18f5 b9bc 2d37 183e 7331 da3b
000001a0: 63db 0c3e b56b 113e 7288 2bbd 595d 05be
000001b0: fede 0f3e d59b 8ebd 340a 163e bc7d abbd
000001c0: 6f12 153d 9b20 563d 96a7 0bbd 0484 e63d
000001d0: 0602 06be 2eab 75bd 9420 babc d065 e23d
000001e0: fd07 9c3d cac7 d93d e879 973d 69b5 0f3e
000001f0: 4b5d d0bc af59 1abd 1c5e a2bc c492 683d
00000200: 2c5f 2dbd 9823 593d 3c17 223d dc02 0b3d
00000210: 8a14 003e 46ad 043d 686b d53d de21 fbbc
00000220: 76fc f0bd 58c9 c73d b961 8e3d 34c0 0e3e
00000230: 36e1 8b3d 6293 313c 47f8 bdbd 5412 01be
00000240: e84c ed3c 8427 f13d 00d7 37bc 6edf 40bd
00000250: 72e2 933d 621d 8fbd 809d 503d 4fe0 efbd
00000260: c2f2 05be 5a74 acbd cc73 cabc b45a 473d
00000270: 2a91 953d 1d1a bbbd 98d7 f2bc 00aa 423d
00000280: 3661 02bd 8026 0e3b 1660 bf3d aa8d 2abd
00000290: e066 983d 9030 f03d 4c16 453d 041a d2bc
000002a0: a42b bbbd d460 c3bd 48be e5bc 04c3 383d
000002b0: b2ab a13d 0029 e4bb ec35 ee3d 2029 6abd
000002c0: c8c9 eb3c 1b57 97bd f8dc 1e3d d449 fc3d
000002d0: 8c28 4f3d 3073 1e3c c494 59bd 5f87 f2bd
000002e0: c448 cabd e890 fdbd 4019 d23d 18a3 76bd
000002f0: 64eb b0bc 2f72 04be 16da 24bd 0c6e fb3d
00000300: 0863 d93c c822 d3bc 3012 9a3d 74e5 e33d
00000310: 5c07 e63d 44b7 dabd 80c9 293c 99bd f2bd
00000320: 8acf cbbd 38fd e23d 4a83 ebbd 0af8 90bd
00000330: 3ac3 8d3d 9cce 0f3e b193 0fbe 3abf bebd
00000340: f8d4 67bd d0fd e43d e444 ac3d 4249 b83d
00000350: 3c69 bd3d 0cf5 13bd 88f5 d93d a0e7 84bb
00000360: 202f 5e3c 90c8 1cbd dccb 7a3d 5e01 843d
00000370: 30ac 7abc 981d 023e 481d 19bd e0a3 153d
00000380: 083e 063e 328c a63d 6a48 57bd 19e7 85bd
00000390: 4833 e43c 8061 8fba 106f 263c c66a be3d
000003a0: f4a7 4e3d 8dc9 a5bd 9259 f1bd fcbb 0b3e
000003b0: 002c 82bc fae9 68bd ee1b d9bd 4aee 0d3e
000003c0: c229 953d ba64 bbbd 804d ffbd 0466 003e
000003d0: 088a 7e3d 44af adbc 14ef b8bd 4eb6 fa3d
000003e0: 3f65 81bd 53fe d03d 0a2e d8bd ef49 c9bd
000003f0: b968 dfbd 61be 253e 1c6d 263e 8bd4 bebd

conv_encoder_in_decoder.conv4.0.bias f4 [32]
-0.06576118 0.099268086 0.12072112 -0.004495591 -0.093050994 0.13361557 0.15615755 0.13814424
-0.002612397 0.054906577 -0.01331537 -0.015291315 -0.1176116 0.020979937 0.08516368 0.12121834
0.07138315 0.094471514 0.1304144 -0.02790396 0.11863021 -0.0030317158 -0.05111762 -0.028544882
-0.09775473 -0.11116855 0.03306502 0.15990388 0.02051866 0.019507796 -0.05414717 -0.056897208
00000000: ccad 86bd 114d cb3d a23c f73d c04f 93bb
00000010: 8591 bebd 85d2 083e c4e7 1f3e af75 0d3e
00000020: c034 2bbb b8e5 603d b628 5abc 6c88 7abc
00000030: 5ade f0bd 1ede ab3c 4c6a ae3d 5241 f83d
00000040: 5431 923d 487a c13d 5a8b 053e d896 e4bc
00000050: 65f4 f23d c0af 46bb b660 51bd f5d6 e9bc
00000060: a233 c8bd 56ac e3bd 306f 073d d8bd 233e
00000070: c016 a83c d0ce 9f3c 6cc9 5dbd 0c0d 69bd

conv_encoder_in_decoder.output.0.weight f4 [64, 32]
-0.055405997 0.1065624 0.07055294 -0.06495078 0.03463854 0.013610719 0.029668104 0.16726089
-0.07366251 0.20728882 -0.078644276 0.20990029 0.09942847 0.11578165 0.005667555 -0.005284476
-0.087272964 -0.12812941 0.16737476 0.17147897 0.091250226 -0.0691466 0.038824826 0.03939277
-0.14615083 -0.14157656 0.06137657 -0.010799159 -0.042045787 -0.10658276 0.07796131 -0.089206524
-0.056455135 0.09405334 0.16553657 0.1575955 0.06958862 0.014898591 0.13422085 0.15668358
0.07936253 0.053232413 0.029291298 0.029828852 0.1354936 0.05285344 -0.14693291 -0.10499598
-0.15838414 -0.05363514 0.009753707 -0.07494799 -0.1641484 -0.11496882 0.07523461 -0.007983934
-0.0340937 0.028620362 -0.03734103 -0.09443245 -0.08112084 -0.072054185 -0.16546777 -0.16302805
-0.06697769 0.098547 0.20479445 -0.0047846437 0.12072052 0.09279397 -0.106891826 -0.054454315
-0.04850419 -0.11243048 0.035794977 0.07411117 -0.11633389 -0.0038300343 -0.123932905 0.20882268
0.13885425 -0.03347018 0.18556271 -0.110646136 0.18175659 -0.068031 0.051650524 0.15668705
0.087577164 0.042838395 -0.020384729 0.03507688 0.1509418 -0.057771213 -0.057355456 0.022590369
-0.0857728 -0.103678085 -0.020280365 0.13294946 0.057637706 -0.14774343 0.06836367 -0.103554785
0.045589164 -0.026645975 0.11129372 -0.077151135 -0.093906455 -0.07387658 -0.035232592 -0.12098031
0.08279516 -0.13179992 -0.010720379 -0.13572438 -0.05868898 -0.038090006 -0.07072129 0.05396409
-0.1640902 0.01854153 -0.016536996 -0.12909536 0.13747315 0.11097433 0.05342023 0.0034389049
0.09797992 -0.113329895 -0.17513005 0.16963492 -0.06617493 -0.0019513302 -0.032384112 0.11286414
0.17583667 -0.15380065 -0.01890287 -0.18223989 0.09233061 0.1305785 -0.1049755 -0.00383322
-0.07514515 -0.077281795 0.10319772 -0.16424733 -0.05761969 -0.0007249415 -0.15591145 0.034569602
0.11193153 -0.140424 0.06839812 -0.045698788 0.16562013 -0.16658892 0.15008129 -0.06567286
0.14901929 -0.06640025 0.053174544 0.04123804 0.10966973 0.11346038 0.12579799 -0.011674862
-0.13986033 0.028141042 0.16551681 0.18342283 -0.086879246 0.15067336 0.10350537 -0.006525676
0.12327025 0.018255712 0.046689134 -0.11583421 0.0031928187 0.17304955 0.10951297 -0.116815545
-0.00611817 0.112604275 -0.07564969 0.005377786 0.088176236 0.14857222 0.16038595 -0.12770773
-0.16657141 0.16462453 0.024883246 0.1596026 0.12547733 -0.026187476 0.09158227 0.100329876
-0.06327188 0.19964565 0.03326997 -0.018496223 -0.13875724 0.1822497 -0.1354084 0.174363
-0.020484505 0.007811088 0.06439792 0.17377363 -0.07676556 -0.12554736 0.106257394 -0.044515077
-0.057939187 0.102194145 -0.07327651 0.14640509 -0.06894537 0.13597704 0.17610337 0.02445136
-0.058850743 0.12707284 0.07488229 0.0007673502 0.15771182 0.017845036 0.0909074 -0.023350425
-0.032072157 0.019855795 0.0142869605 0.10618641 0.1568236 0.1370927 -0.047120195 0.18664026
0.14851713 0.09125094 0.049102265 -0.10004538 -0.077661745 0.00088626146 -0.13149026 0.090497926
-0.16546229 -0.15763402 -0.079400785 0.12925693 0.13841595 -0.14858533 -0.111640215 0.039217025
00000000: 66f1 62bd 633d da3d 0f7e 903d ea04 85bd
00000010: 24e1 0d3d 7eff 5e3c 860a f33c 7046 2b3e
00000020: 5fdc 96bd 8543 543e 4010 a1bd 1af0 563e
00000030: 27a1 cb3d ee1e ed3d e6b6 b93b 6629 adbb
00000040: 2bbc b2bd 5b34 03be 4a64 2b3e 2f98 2f3e
00000050: 66e1 ba3d bc9c 8dbd c806 1f3d 505a 213d
00000060: 90a8 15be 72f9 10be 0066 7b3d f5ee 30bc
00000070: 3438 2cbd 1048 dabd 2eaa 9f3d e9b1 b6bd
00000080: 803d 67bd 0a9f c03d 6b82 293e b760 213e
00000090: 7a84 8e3d 3819 743c 3171 093e a971 203e
000000a0: d288 a23d 3b0a 5a3d 4ef4 ef3c a35b f43c
000000b0: d6be 0a3e d97c 583d 9575 16be 2208 d7bd
000000c0: 742f 22be 85b0 5bbd 03ce 1f3c 557e 99bd
000000d0: 8516 28be c674 ebbd 9a14 9a3d 0ccf 02bc
000000e0: d6a5 0bbd 4075 ea3c e8f2 18bd cd65 c1bd
000000f0: af22 a6bd 2591 93bd 6270 29be d3f0 26be
00000100: 992b 89bd 02d3 c93d a3b5 513e 80c8 9cbb
00000110: 523c f73d c40a be3d 1aea dabd 7d0b 5fbd
00000120: 54ac 46bd f441 e6bd c19d 123d 99c7 973d
00000130: 7640 eebd 5001 7bbb 89d0 fdbd 9dd5 553e
00000140: cf2f 0e3e 0718 09bd 2704 3e3e 719a e2bd
00000150: 661e 3a3e d653 8bbd 808f 533d 9272 203e
00000160: a85b b33d 5077 2f3d e0fd a6bc c6ac 0f3d
00000170: 7d90 1a3e 82a1 6cbd 8eed 6abd 700f b93c
00000180: a6a9 afbd 2d55 d4bd 0223 a6bc e723 083e
00000190: 8415 6c3d 0e4a 17be 4002 8c3d 8814 d4bd
000001a0: b4bb 3a3d a948 dabc f6ed e33d 6a01 9ebd
000001b0: 0752 c0bd 9b4c 97bd 0d50 10bd 86c4 f7bd
000001c0: 8290 a93d 8ff6 06be 87a4 2fbc 55fb 0abe
000001d0: db63 70bd 4404 1cbd 53d6 90bd 7309 5d3d
000001e0: 4307 28be 68e4 973c 9878 87bc 9331 04be
000001f0: c3c5 0c3e 8246 e33d 2ccf 5a3d 405f 613b
00000200: b2a9 c83d 8119 e8bd 4b55 33be c7b4 2d3e
00000210: b986 87bd c7c3 ffba 34a5 04bd 5025 e73d
00000220: 870e 343e eb7d 1dbe 31da 9abc 189d 3abe
00000230: d517 bd3d 5fb6 053e 65fd d6bd c336 7bbb
00000240: b3e5 99bd eb45 9ebd 5459 d33d 7430 28be
00000250: a002 6cbd 000a 3eba 40a7 1fbe db98 0d3d
00000260: 5c3c e53d 4fcb 0fbe 5014 8c3d a72e 3bbd
00000270: 5398 293e 4996 2abe e9ae 193e 7e7f 86bd
00000280: 8398 183e dbfc 87bd 8dcd 593d 38e9 283d
00000290: 869a e03d ea5d e83d 30d1 003e ec47 3fbc
000002a0: 8c37 0fbe 0b88 e63c 3d7d 293e 32d3 3b3e
000002b0: bfed b1bd 1e4a 1a3e a0fa d33d 57d5 d5bb
000002c0: 1d75 fc3d 018d 953c 1b3d 3f3d 7c3a edbd
000002d0: 9c3e 513b e733 313e 5648 e03d fd3c efbd
000002e0: ee7a c8bb 129d e63d 3aee 9abd 2338 b03b
000002f0: be95 b43d 5123 183e 373c 243e d1c5 02be
00000300: b291 2abe 5593 283e f3d7 cb3c dd6e 233e
00000310: 217d 003e 1e87 d6bc 7c8f bb3d c079 cd3d
00000320: b094 81bd e96f 4c3e 1846 083d 6485 97bc
00000330: 6116 0ebe aa9f 3a3e 80a8 0abe 378c 323e
00000340: 1fcf a7bc 28f4 ff3b 0fe3 833d b7f1 313e
00000350: 4337 9dbd 7d8f 00be 7a9d d93d 7155 36bd
00000360: a451 6dbd 2a4b d13d ff11 96bd 37eb 153e
00000370: 3b33 8dbd 913d 0b3e 7154 343e 384e c83c
00000380: 7a0d 71bd 621f 023e e35b 993d 0028 493a
00000390: 357f 213e c12f 923c a92d ba3d 6449 bfbc
000003a0: 185e 03bd 9fa8 a23c db13 6a3c 4378 d93d
000003b0: 5e96 203e 0762 0c3e 1b01 41bd a01e 3f3e
000003c0: e014 183e c6e1 ba3d 751f 493d 98e4 ccbd
000003d0: 1f0d 9fbd 0054 683a 62a5 06be fa56 b93d
000003e0: f26e 29be d06a 21be e19c a2bd ee5b 043e
000003f0: e9bc 0d3e c126 18be a0a3 e4bd 08a2 203d

conv_encoder_in_decoder.output.0.bias f4 [64]
0.08685372 0.11718209 0.16250046 -0.14913023 -0.14490801 0.1084344 0.21280636 0.17769195
0.08941959 0.1895472 -0.061225064 0.031813078 -0.15356526 -0.11754292 -0.13532808 -0.19577979
0.060780123 0.05492226 0.05043063 0.15059263 -0.1660228 -0.090668455 0.17829545 -0.19088875
0.1630521 0.06520468 -0.18189862 0.0025397423 -0.023398278 0.046893515 -0.039735448 0.11825801
0.14903001 0.13863349 -0.012164703 -0.19749397 0.18472722 0.07566697 0.16648085 0.10131781
-0.030073559 0.12802845 0.12224308 0.020114874 0.045629486 -0.03266913 0.156643 0.11498953
-0.018589076 0.15235275 0.20727532 0.16431156 -0.0035990863 -0.020428626 -0.12506008 0.1672003
-0.16338418 -0.18955375 0.05709477 -0.15846501 0.095388435 -0.12687568 -0.03276451 -0.0578798
00000000: 5de0 b13d 2afd ef3d 8566 263e 98b5 18be
00000010: c462 14be db12 de3d e9e9 593e e1f4 353e
00000020: 9e21 b73d a918 423e 22c7 7abd 6e4e 023d
00000030: 3640 1dbe 58ba f0bd 7293 0abe 7f7a 48be
00000040: 94f4 783d 2af6 603d 5990 4e3d f434 1a3e
00000050: e201 2abe 62b0 b9bd 1593 363e 5778 43be
00000060: 21f7 263e 088a 853d a243 3abe ce71 263b
00000070: bfad bfbc 6a13 403d a3c1 22bd 4131 f23d
00000080: 539b 183e f0f5 0d3e 764e 47bc dc3b 4abe
00000090: 2229 3d3e 49f7 9a3d f579 2a3e b67f cf3d
000000a0: d35c f6bc e419 033e 945a fa3d f3c7 a43c
000000b0: fce5 3a3d 11d0 05bd 0667 203e a17f eb3d
000000c0: 1e48 98bc 5c02 1c3e fb3f 543e 4a41 283e
000000d0: a6de 6bbb ef59 a7bc c00f 00be 8e36 2b3e
000000e0: 2f4e 27be 611a 42be 35dc 693d a744 22be
000000f0: 035b c33d b3eb 01be 1434 06bd 5f13 6dbd
